plankton-encoder-final.pt (torch, 116006 bytes, 20 tensors)

encoder.encoder_cnn.0.weight f4 [8, 3, 4, 4]
00000000: 6c9e c23c 200c d93d fe2d 8cbd 2db5 58bd
00000010: 7679 58bd 647c cd3c eed8 46bc 96be d33d
00000020: d3dd 463d f472 a13d 37a0 8dbb 527b 4b3c
00000030: 8b08 59bd adb2 1bbd 887d 22bc 7775 413d
00000040: e1e6 8d3d 1f4d d23d 7cbc 88bd 7232 f9bc
00000050: 04bc 323d 191a cc3d 78f4 44bd 6db4 a23d
00000060: 4294 f53c 6120 623d 848b 263e 86a5 e0bd
00000070: 0057 77bc 8952 803c 31c7 bcbc 4c8b 0e3e
00000080: 81ff 14be f9d5 ecbd d538 1abe 1bc7 4fbe
00000090: 2d8e 31be 5853 0c3d a420 17bd 4fe7 5bbd
000000a0: 6941 00bd f205 f1bd e3fc 00bd 9c0c 5abe
000000b0: 6829 16be 00e2 f7bd df0d e63c 8899 fcbb
000000c0: 8230 e4bc 727c 47bc 7021 c83d 493e 1e3e
000000d0: a112 c33c 0611 f2bc bbf8 af3d f81d 97bd
000000e0: 3400 983c 2d0f 05be 4bdd c6bd 1287 7dbd
000000f0: 4817 393d 1ac9 143d 34a7 a2bd 4e9a 923d
00000100: 18cc 073e 11f5 12bc 0f10 ee3c 04d9 a13d
00000110: 566b 673d a1d4 a73d 9acb ffbd 1a47 06bd
00000120: ffcc 2f3d 8123 b83d 5c62 e13d e6d3 073e
00000130: 124e cb3c 8704 03be ae76 053d 93ef 45bd
00000140: a0db 5dbd 9f14 443e 4ce9 4a3e 0bff 1cbd
00000150: 4ba6 713d da81 1e3b da66 fe3c 9632 853c
00000160: 449e 7c3d 3fc6 9cbd 12cd b03d 2138 003e
00000170: 85fc de3d 4120 913d 2ad3 a8bd f33e 3fbc
00000180: 0e38 953c 18a3 853b c806 09be 334b babd
00000190: 5123 013e 1bd6 f43d e123 2fbd 409a 43bc
000001a0: f6e1 3cbe 6fdf 7dbc 61f7 ecbd eda1 02be
000001b0: 81f5 24bd c4ba 863c 1b34 70bd 01e4 a03d
000001c0: 7417 03be b278 ff3d ace1 d23d aba7 d6bd
000001d0: 8a74 d9bc 66d0 423d 1fb9 7e3d 73c2 9a3d
000001e0: 32ab 013d bfcb 883c e7cf 74bd 3b41 933d
000001f0: 44dd 18be 09f6 94bd ce9e acbc 0503 83bd
00000200: 2266 adbd f494 01be fdf3 05bd d1ca 1b3d
00000210: 46c3 b7bd d2d0 c93c cfd8 103e 6ce3 cc3c
00000220: 9c14 c9bc 9e27 1cbc 34a3 2c3d d604 cb3d
00000230: 1e84 e33d 6db0 b93d 27b2 163e b287 faba
00000240: 65a3 d7bd 558e 16bd 9ad3 c73d 2a0b c83c
00000250: 99d8 8dbd d98d c6bd 1174 19be 6cd2 e1bd
00000260: bb37 78bd 7924 5e3d 12d4 103d 122f 13be
00000270: 4fd0 be3c b060 2cbe b971 c7bd 189d d5bd
00000280: 0fdc cfbc 00b7 76bc 36d5 05be dd6e b8bd
00000290: 64b3 cabc 8a0d 393c 9060 9ebd 539b 9d3d
000002a0: ac4d 18be 05a8 8fbc 708f c53d 522f 4bbd
000002b0: 746a 933d 70a6 063c 83b3 3bbe f492 773d
000002c0: a0d2 613b 85e6 b0bc adfc 113e d36a 5bbd
000002d0: 20f3 f33c 50cd c8ba e74b f73d 13ea c13d
000002e0: 9453 323d 24cd 183d 1fe4 5bbd b378 d5bb
000002f0: caaf 2bbe 0564 293d 13c3 a13d c6f0 bb3d
00000300: 2225 bbbd 63fd aa3c e6ce b1bd 504b 48bd
00000310: a487 8ebd 9bf2 843d cc49 92bd 8763 253c
00000320: 1cd9 ab3c 55b6 e73d 2a0c afbd 2620 48bd
00000330: cf54 cbbd b723 a03d 9132 adbd 7ad3 d73d
00000340: da0f 6b3d 4313 c23c 5b59 333c 52dc 78b9
00000350: 33c1 cb3c 7e42 c3bc 6bf4 043c 34dc 083d
00000360: 52aa d4bd 77db 76bd a3b7 0a3e 3b6f 9bbd
00000370: 6611 2abd 5e63 e43d f67a dc3b 4f34 cfbc
00000380: 3051 02be e9d2 813d 9915 d0bd ddcc 84bc
00000390: 8d1c 2fbd 61f7 e1bc 7f17 f4bb 67e2 fe3d
000003a0: df3d 963c f92e fa3d fc7b a23d b222 96bd
000003b0: 4968 b83c bf55 1fbe 4041 01be 33a3 13bc
000003c0: 7334 cb3d 0fb5 203e d78e c43b d53a 6c3d
000003d0: 1583 0b3e 2e53 d8bd d1ba 043e da9e c9bd
000003e0: 35f7 573d 3ffa 2d3b f6fc 69bd 7bce e13c
000003f0: b531 153e 4aa9 2cbd fa57 a0bd 6992 4ebd
0.023757182 0.10598016 -0.0684471 -0.052907158 -0.05285021 0.025083728 -0.012136681 0.10339086
0.04855139 0.07883254 -0.0043220776 0.012419539 -0.052986663 -0.038012195 -0.009917624 0.047231164
0.06928802 0.10268616 -0.066765755 -0.030419562 0.043636337 0.09965915 -0.048084706 0.0794457
0.029977921 0.05520666 0.16264158 -0.10969071 -0.015096426 0.015664356 -0.0230442 0.13920325
-0.14550592 -0.115642495 -0.15060742 -0.20290796 -0.17339392 0.03425917 -0.036896363 -0.05368739
-0.03131238 -0.11768712 -0.03149117 -0.21293873 -0.14664233 -0.12103653 0.028082786 -0.007708732
-0.027855162 -0.012175666 0.09772003 0.15453447 0.023812594 -0.029549133 0.085923634 -0.07378763
0.018554784 -0.1299407 -0.09710177 -0.06189639 0.04518822 0.036324598 -0.07942048 0.071583375
0.1326145 -0.008969561 0.029060392 0.079027206 0.056498848 0.081948526 -0.12490006 -0.03278265
0.04292011 0.08991147 0.11005089 0.13264427 0.0248175 -0.12794696 0.032583885 -0.04832418
-0.05416453 0.19148491 0.19815558 -0.038329165 0.05899648 0.0024186284 0.031054903 0.016259473
0.06167437 -0.07655 0.08632864 0.12521411 0.10888008 0.0708623 -0.08243401 -0.011672723
0.018215206 0.00407828 -0.13381493 -0.09096374 0.12611128 0.119549 -0.042758826 -0.011938632
-0.18445572 -0.015495165 -0.11570621 -0.12757082 -0.040273193 0.016446479 -0.05864344 0.07855988
-0.12801915 0.12474193 0.1029695 -0.10481199 -0.026544828 0.047562025 0.062188264 0.075566195
0.031657405 0.016698716 -0.059768584 0.07190176 -0.14928156 -0.0727349 -0.021071818 -0.0639706
-0.08466746 -0.12654477 -0.03270339 0.038035218 -0.08972792 0.024635706 0.14145206 0.025010787
-0.02454596 -0.00953093 0.04214783 0.09913032 0.11109184 0.09066854 0.14716397 -0.0019113927
-0.10529212 -0.036756832 0.09757157 0.024419386 -0.06926078 -0.09695024 -0.14985682 -0.11026463
-0.060600024 0.054234 0.035358496 -0.14373425 0.023292689 -0.16833758 -0.09738488 -0.10430354
-0.025373487 -0.015058279 -0.13069615 -0.090055205 -0.024743743 0.011294732 -0.077332616 0.07695641
-0.1487338 -0.017536173 0.09646499 -0.049605675 0.07198039 0.008218393 -0.18330197 0.06044288
0.0034457818 -0.021594295 0.14256544 -0.053568672 0.029779017 -0.0015319977 0.12075024 0.09468474
0.043536738 0.037305012 -0.05368435 -0.0065146326 -0.16766277 0.04135515 0.078985356 0.09176783
-0.09137942 0.020872777 -0.08682041 -0.04889995 -0.06959465 0.06491586 -0.07142982 0.01009453
0.02097755 0.11314074 -0.08547242 -0.048858784 -0.09928285 0.07819312 -0.084569104 0.10538383
0.057388164 0.023690825 0.010946597 -0.00023733199 0.024872398 -0.023835417 0.008114914 0.033413127
-0.103840485 -0.06026789 0.13546614 -0.07589575 -0.0415205 0.11151765 0.0067285253 -0.025293497
-0.12726283 0.06339056 -0.101603694 -0.016210968 -0.042751838 -0.02758378 -0.00744909 0.124455266
0.01834005 0.122159906 0.079338044 -0.07330836 0.022510665 -0.15560053 -0.12622547 -0.009011078
0.09922113 0.15694068 0.005998473 0.057673294 0.13624223 -0.1056274 0.1296189 -0.09844752
0.05272599 0.0026546863 -0.057126008 0.027564278 0.14569743 -0.042153634 -0.0782928 -0.050432596

encoder.encoder_cnn.0.bias f4 [8]
00000000: a692 363b ed61 753e ddf1 b83d a827 163e
00000010: b11a efbb 4bbd 323e 8d53 403c 1736 483c
0.0027858405 0.23963137 0.09030507 0.14663565 -0.007296883 0.17455022 0.01173867 0.012219927

encoder.encoder_cnn.2.weight f4 [16, 8, 4, 4]
00000000: 299c 98bd ceeb 86bd 9f94 c7bd b270 a23c
00000010: 233c cdbb 83b5 17bd 3247 b1bd 1990 d13c
00000020: 5603 b33c ade1 90bb ef26 85bd c2e1 843d
00000030: 64c3 16bc 8c8f c9bd 428e 733d 1f39 1b3d
00000040: eb2f bb3c ee9e 943d a82a 2fbc bccd 173d
00000050: 9c94 c23d 9523 84bc 30b6 23bd 6cf6 d3bc
00000060: f3bc 35bc ba9b a0bd 0cfa 17bd ff61 41bc
00000070: 61ef 6c3c 5780 b7bd 1b14 a7bd cd1d 66bd
00000080: ee70 5b3d 2bf6 29bc e5e9 873c cfb0 0dbd
00000090: c752 b2bc 4971 5e3d 7fd3 99bd 93ab 753d
000000a0: ad9e 6c3d 8bba 5f3b fb38 32bd cf62 863a
000000b0: fa14 25bb 9ba3 80bd a9c3 1d3d 6aab 74bd
000000c0: 54d7 b3bd 763e c0bc 1af7 ef3b 04c4 ae3d
000000d0: fe63 a2bd 4e25 8a3d b9e3 8bbd 1b41 8a3c
000000e0: 0185 41bc faa9 d1bd 4412 9a3d d565 ae3d
000000f0: df4a bc3d 4c4d 5e3d ac2d 95bd 7c34 e43d
00000100: 251f 33bd a063 013d 6a9b ccbd 5463 70bd
00000110: 563f cbbd c3e8 59bc 2217 9f3b 4c35 a2bd
00000120: 8ac5 133c dbc8 2f3d 86cd 383c 8211 63bd
00000130: a315 d1bd 833b 18bd 0ebf 8e3c d945 9d3d
00000140: 750a 163d f73a d4bc 78ec 523c 693a a9bd
00000150: 55e8 a0bd a382 b7bb dcc0 57bd a407 5f3d
00000160: d0d8 97bd 8066 0abd aa32 4bbd cba3 713d
00000170: f15a ecbc 756a 5c3d 967f 673d 3f09 4e3d
00000180: 2ae7 683d 21f6 5e3d e5fc 833d d35b 133e
00000190: 042f 9b3d ba55 b5bd 4b28 133d c698 313d
000001a0: 2140 35bd 6954 eabd a901 8b3d b1dd ce3d
000001b0: 6322 8fbd 8cab 523c 8e80 4a3d d499 b23d
000001c0: 60d9 b13d e545 a4bc d4d8 6f3d c197 e43c
000001d0: f2a5 3d39 4037 af3c 053f c5bc 6246 1dbd
000001e0: 2cdb d1bc 0afc 0fbd 67b4 14bb 0e19 8bbd
000001f0: ca57 a7bc 7f2c babb 1362 46bd 5d96 e1bd
00000200: cb28 a73c 7b2b cabc 0f73 573d cb6c 7fbd
00000210: 1539 aabd 1f4d b7bd 0f66 7a3d 1a25 51bd
00000220: f430 143b 7d6f 3fbd 75dd be3d 489d a03d
00000230: 44a2 38bd e5c4 71bd 2a97 48bd 1425 303c
00000240: a6f9 64bc 104c a4bd 418f 5cbd 85e7 dfbc
00000250: 585b 0ebd fae3 c0bc 4cbf 73bd 90d4 d3bd
00000260: 2660 053d aecc 283d 22f4 adbd 8aca 81bd
00000270: 869b d4bc 8eb3 813d 7cce d9bd a678 f9bd
00000280: e772 8d3d 5449 7abd a38a 513c cec3 40ba
00000290: 4cfe 70bc 9c7d 56bc 3d96 a73d 203c f03c
000002a0: 9588 93bd 294d 12bd f3e7 86bb ddd6 933d
000002b0: aa32 f1bc 40a4 c83d 36d9 b43b 36ed 693c
000002c0: ada0 893d 18ee e23c 9f1e 8d3d 9516 7c3d
000002d0: 55ba ebbc d9ab 97bd afbf 3bbb 98a1 aa3d
000002e0: a348 23bc 2441 a5bd e3bb 2f3d 0e09 c33d
000002f0: cbc0 f53c d49b 83bd 4867 65bd 114f 763d
00000300: ad22 e3bc 22fd 65bd e88b 21bb 6913 5b3c
00000310: 5b89 633d 34b9 6d3d 2331 89bc f195 acbd
00000320: b062 a3bd 4430 b33d dad9 273d 4893 043d
00000330: 0cd6 79bd bc30 ad3d 0c99 913d 04bf 973d
00000340: 0b50 b0bd af1a 75bd c880 b3bd 81b2 883d
00000350: c019 3abd e38a 41bd 9062 0b3d 89c4 23bd
00000360: 3c8e 39bd aaf9 91bc 71f1 27bc 1b13 89bd
00000370: 0430 8e3d 41a2 84bd 41ef 0d3c cf97 623d
00000380: d4c8 513d 98d2 df3c baae 693d effc 6e3d
00000390: 5bc1 bfbc 0230 e13d d47e e33c 644f 1ebd
000003a0: 61a8 0ebc acfd 0fbd 4c89 b03d e173 0a3d
000003b0: a3d9 76bd d198 153c 668b 7f3d 9406 733d
000003c0: 0314 033d ce8f bcbc b779 02bd 6042 acbd
000003d0: 66f8 08bc dc18 efbd 43fe 07be a83c b6bb
000003e0: 5133 edbc 7ddf f4bc 5311 05bd 8152 14bd
000003f0: 1021 89bd 96c3 d23c 4516 03be c4bb e23c
-0.0745166 -0.06587945 -0.09745144 0.019829128 -0.0062632724 -0.037038337 -0.086561576 0.025581406
0.021852177 -0.004421434 -0.065015666 0.064883724 -0.009201858 -0.098418325 0.05946184 0.03789627
0.022849998 0.07256876 -0.010691322 0.037061438 0.09501001 -0.016130248 -0.03996867 -0.025874339
-0.011092412 -0.078422025 -0.037103698 -0.011803149 0.014461369 -0.08960026 -0.08158132 -0.056180764
0.053574495 -0.010373632 0.016591022 -0.034592446 -0.021767987 0.054307256 -0.07511043 0.05997808
0.057768513 0.0034138288 -0.043511372 0.0010252836 -0.0025189505 -0.06281205 0.038516674 -0.059733786
-0.08781305 -0.023467284 0.007323158 0.08533481 -0.07929228 0.067453966 -0.06830544 0.016876748
-0.011811496 -0.102374986 0.07523015 0.08515517 0.09193968 0.054272935 -0.07284102 0.11142823
-0.043730874 0.03158915 -0.099905804 -0.058688477 -0.0992419 -0.013300124 0.0048550526 -0.07920322
0.009019265 0.04291616 0.011279469 -0.05543662 -0.10209205 -0.03716613 0.017425086 0.07679338
0.036631066 -0.025907023 0.012873761 -0.08263094 -0.07856814 -0.00560029 -0.05267416 0.054450646
-0.074144006 -0.033789158 -0.049608864 0.058994096 -0.028851958 0.053812463 0.05651816 0.050301787
0.05686108 0.054433946 0.0644472 0.14390497 0.07577327 -0.08854242 0.0359271 0.043358587
-0.04425061 -0.11441881 0.06787426 0.10100878 -0.069889806 0.012858283 0.049439006 0.08720747
0.08684039 -0.02005286 0.058556393 0.027904393 0.00018086264 0.02138865 -0.024077902 -0.0383972
-0.025617205 -0.035152473 -0.0022690536 -0.06791888 -0.020427603 -0.005681574 -0.048433375 -0.11015008
0.020405194 -0.024678936 0.052599963 -0.062359612 -0.08311669 -0.089502566 0.061132487 -0.051060773
0.0022612186 -0.046737183 0.09319583 0.07842499 -0.045076624 -0.059025664 -0.048972286 0.010751028
-0.013975536 -0.0802232 -0.053847555 -0.027332077 -0.03475508 -0.023546208 -0.059508607 -0.103432775
0.032562397 0.041210823 -0.0849383 -0.063374594 -0.025953066 0.063330755 -0.10635087 -0.12181215
0.069066815 -0.061105087 0.012789401 -0.0007353396 -0.014709067 -0.013091471 0.081829526 0.029325545
-0.07203785 -0.035718117 -0.004117006 0.07218716 -0.029443104 0.09796953 0.0055190576 0.014277747
0.067200996 0.027701423 0.06890606 0.061544973 -0.028775373 -0.07405824 -0.0028648188 0.08331603
-0.009966048 -0.08069065 0.042903792 0.095232114 0.029999157 -0.06426206 -0.0560067 0.060133997
-0.027726496 -0.05614961 -0.002465004 0.013371327 0.055550914 0.05803795 -0.016747063 -0.084270366
-0.079778075 0.0874944 0.040979244 0.03236702 -0.060995147 0.08456561 0.071092695 0.0740948
-0.08609017 -0.0598399 -0.087647974 0.06674672 -0.045434713 -0.047251593 0.034029543 -0.039982352
-0.04530166 -0.017819244 -0.010250435 -0.06693097 0.06942752 -0.0647626 0.008663 0.055320557
0.051216915 0.027322099 0.057051398 0.058346685 -0.023407629 0.10995485 0.027770437 -0.03864993
-0.008707137 -0.03515403 0.08619937 0.033801917 -0.06026615 0.009130673 0.0623888 0.059332445
0.032001507 -0.02301779 -0.031854358 -0.084110975 -0.008360004 -0.116746634 -0.13280587 -0.00556143
-0.028955134 -0.029891724 -0.032487225 -0.036211494 -0.06695759 0.025728028 -0.12801464 0.027677424

encoder.encoder_cnn.2.bias f4 [16]
00000000: e048 9538 d584 b3b7 f6fb 1338 fa4f 6ab5
00000010: 3f54 e337 5e3d 0fb8 e6d3 beb8 c631 b336
00000020: 510b cdb7 4d99 8f37 02a5 a636 3008 9e37
00000030: 1a45 33b8 3f96 0238 1570 fab6 e0f9 4bb7
7.118448e-05 -2.1400318e-05 3.5282188e-05 -8.7288174e-07 2.7099739e-05 -3.415101e-05 -9.099375e-05 5.34041e-06
-2.4443174e-05 1.7118315e-05 4.966395e-06 1.883888e-05 -4.274128e-05 3.1134343e-05 -7.4636287e-06 -1.2157921e-05

encoder.encoder_cnn.3.weight f4 [16]
00000000: 3096 983f 1a7f 8a3f c980 933f be64 853f
00000010: 6258 9f3f 51f4 913f d3af 983f a1d3 953f
00000020: db74 993f e8e6 8e3f cc83 8d3f 3ddd 8b3f
00000030: c45d 913f 80ef 8b3f 8b3d 8c3f 357c 923f
1.1920834 1.0820038 1.1523677 1.0421369 1.2448847 1.1402684 1.1928657 1.1705209
1.1988786 1.1164217 1.1055846 1.0926892 1.135674 1.0932465 1.0956281 1.1444155

encoder.encoder_cnn.3.bias f4 [16]
00000000: cb5f bb3d b1df 093e 1b71 fa3d 0c48 943d
00000010: 5c68 053e c551 023e dce8 363e f944 e53d
00000020: 8990 a93d 33e4 893d 8adc a43d bf2c 9c3d
00000030: d396 9e3d 8614 fa3d b837 cc3d 28cd 993d
0.091491304 0.13464238 0.122286044 0.07240304 0.13028091 0.12726505 0.17862266 0.11194796
0.08279521 0.06732979 0.08049877 0.07625722 0.07743611 0.12210946 0.09971565 0.075098336

encoder.encoder_cnn.3.running_mean f4 [16]
00000000: 8bd1 5dbe be43 d8be 75f0 553f 0ab4 adbe
00000010: d6f2 56bf 456f 9e3d 26d8 7fbf b14d febe
00000020: 2192 8dbf 1787 04bf 1833 fabd fa54 4d3e
00000030: 72d0 953d cd10 4abf 38ec 0b3f 4c9a be3e
-0.21661966 -0.42239183 0.83570033 -0.3392642 -0.8396429 0.07736067 -0.9993919 -0.4966865
-1.106022 -0.5176863 -0.122167766 0.20051947 0.073151484 -0.78931886 0.54657316 0.37227094

encoder.encoder_cnn.3.running_var f4 [16]
00000000: 9aaf 8f3e ac02 453f 6000 8c3e 7228 9f3d
00000010: 3e04 2a3e 9787 e13e 005e 2d3e 6be9 3b3e
00000020: e3bb 573e a469 013e ba33 8c3d 752b 2f3f
00000030: 156c 313e 175d bb3e 759c 053f 4597 cd3d
0.2806366 0.769572 0.27344036 0.07771386 0.16603181 0.4404876 0.1693039 0.1835076
0.21067767 0.12637955 0.068458036 0.68425685 0.17326386 0.3659446 0.5219186 0.10038618

encoder.encoder_cnn.5.weight f4 [32, 16, 4, 4]
00000000: ed4c 54bd af5b 8d3d 32c7 843d 9a75 30bb
00000010: 685e 14bd c911 51bc a03a 3a3d 6a74 ebbc
00000020: f3bc 053d 1541 d13d 7696 9a3d ecba 273d
00000030: 3fdb dfbb b505 703d ef06 6f3d 38f6 3cbd
00000040: 2c35 2abd f3f3 7a3d dc88 cb3d 11fd cabc
00000050: 2c89 723d fedd 25bc e196 dfbc 448c 1b3d
00000060: 5346 90bd 9a87 bbbb ece5 e7bc d0d7 223b
00000070: cf52 58bc 0be2 65bd 0acb c53b e4ad 103b
00000080: 8d16 a43c 6ed8 e43c e6fb bfbd 56b5 48bb
00000090: 2faf 773d 4b18 033e 04c6 a0bb 076a b83c
000000a0: 26f7 c23d 1567 b33d 6bd2 1fbd 31cd 9a3c
000000b0: de9c 903c 255a 2d3d 9c9a f6bc a06d 393d
000000c0: 51b1 8bbc 7c3c 16bd 8708 d63d ca76 b53d
000000d0: 59fb 6abd ef21 ccbb 7c28 cbbb 1991 163d
000000e0: 0c02 043c 43f6 0dbc 0b0f adbd 4900 bebc
000000f0: 1f9e 19bd 783c dabb cd73 aa3c 9a2e c3bc
00000100: af50 223d cf88 3f3d c959 63bd 4415 11bd
00000110: e14c a83c 5a9f 12bd efdd 883d b249 69bd
00000120: ae71 133c 5f04 9a3d 1ad4 923d 4f08 e2bc
00000130: 1196 18bd da8c 503c bb90 a43c 8754 33bd
00000140: f29f 093d 37c1 b93b d5ad 18bd 6451 78bd
00000150: f497 b3bc 7153 8b3b b496 a03c abfd b83c
00000160: 153d bdba d511 49bd 1684 fe3c 57e2 3e3c
00000170: 0022 2dbd 06cf bdbb 6719 023d 6df5 e13c
00000180: 7b1c c2bc ad61 65bc 1bb7 1b3d 2d56 483d
00000190: 5756 8ebd 5d75 6abc ec53 27b9 04ec 32bb
000001a0: 85ca 9abd a0b5 56bc cec5 ae3d 975b 873b
000001b0: 15d1 88bc 41d3 873c d411 35bd 884b 85bc
000001c0: 38a6 793d d0a9 093d 1f10 c03c 5dfe 27bc
000001d0: 729d 873d b180 a93d a395 ac3d 88e7 e93c
000001e0: ff84 1abd a69d 2b3d 2b94 a53d b6a0 8d3b
000001f0: 445f 24bd 9aad 483d 8a1e 91bc 1002 8b3b
00000200: 0720 a7bc 4d60 283d 28d7 a83d b8de a53d
00000210: 70f0 8ebd 9624 983c cdaf cd3c 8859 0a3d
00000220: 16ff b0bd 7f81 c0bc 185a 3dbd cfb4 713d
00000230: c785 593c 8514 f13c ed38 47bb 1468 453c
00000240: 1ba7 303d d96b 3c3c a325 2c3d e88a 1fbd
00000250: 2f7b 4fbd c7db 6bbc ca11 a73c e8ab 6dbc
00000260: 43d7 31bd 612a 03bd 70ef 4bbd 9e83 123d
00000270: e4d2 bdbc 3d4b 493c 108c b3bd 6491 39bc
00000280: 1d05 3bbd 589e e9bd 69f8 7c3d e168 353d
00000290: dda1 51bd cbd6 bfbc f330 973c fc6e c03c
000002a0: 0e2f e7bc f2b8 9ebd 8010 273d af17 45bd
000002b0: 4768 733c 3a19 09bd 80dd 93bd 40b1 1bbd
000002c0: db19 65bd 9c25 6dbc 240e 573d 2a47 a53d
000002d0: 96d6 c9bd 9c67 35bc 5368 10bc 7502 41bb
000002e0: 35db 9dbd 0524 9dbd 8633 94bc ad2d ac3b
000002f0: eeea 883c 42d9 623c b3db d9bc 9316 d13c
00000300: 3128 a33d 04a0 ad3c f485 96bb a893 c03c
00000310: 0d7c 4a3d 2dd8 b8bc 932d d03c 7de6 643b
00000320: 99bc 293d 9ea2 93bb 607d f73c 5823 b73d
00000330: 3726 a8bd 4046 b937 0c96 c13d 7ee2 153d
00000340: ef0c ebbb 6c4c ad3d fdf1 783d 2bbe ae3c
00000350: cb4a 30bd faa4 c93b 913a 7e3c 9269 a2b9
00000360: b5d5 943c a5f3 8a3c b41b 59bd bc5b 2b3d
00000370: d88e 923b dba4 98bc 890b a0bc b454 833d
00000380: 8082 36bd f0af 3ebc 944f 503d 9397 703d
00000390: b6c1 78bd d8a8 19bd 2fb7 7fbd 8b2b 543b
000003a0: 8100 c3bc c9b6 6abd 01c3 063d 564e 763c
000003b0: edb3 9dbc 84f2 8ebc 7753 dd3b 116d b7ba
000003c0: a01e bc3d 2182 4ebd 1eea 493a 2b9e 463d
000003d0: 6afe 683d 7216 263d fb01 253d 6f9f e3bc
000003e0: 7ef0 8abd f615 4b3b c597 b03c 011f 783d
000003f0: fc58 083d c635 833c 53b3 113c d176 24bd
-0.051831175 0.06902253 0.06483306 -0.0026925565 -0.036222845 -0.012760588 0.045466065 -0.028742034
0.0326509 0.102174915 0.075482294 0.040949747 -0.006831556 0.058599193 0.05835622 -0.04613325
-0.041554615 0.061267804 0.09938213 -0.024778875 0.05921285 -0.010123728 -0.027293624 0.037975565
-0.07044663 -0.005722952 -0.028307877 0.0024847873 -0.013203337 -0.056123774 0.006036167 0.0022076303
0.020030284 0.027935233 -0.09374218 -0.0030625663 0.060469802 0.12802236 -0.004906418 0.022511495
0.09519796 0.08759896 -0.03901903 0.018896671 0.017652925 0.042322297 -0.03010302 0.045270562
-0.017052324 -0.036678776 0.10450845 0.08860548 -0.05736861 -0.006229631 -0.0061998945 0.03675947
0.008057129 -0.00866467 -0.08450135 -0.023193495 -0.03750431 -0.0066600405 0.020807171 -0.023825932
0.039627727 0.04676133 -0.055505548 -0.03542067 0.020544471 -0.0357965 0.066829555 -0.056955047
0.008999271 0.07520365 0.071693614 -0.027591852 -0.03725249 0.012728894 0.020088544 -0.043781783
0.0335998 0.005668785 -0.037275154 -0.060624495 -0.021923043 0.0042518904 0.01960311 0.022581896
-0.001443776 -0.04908927 0.031068843 0.011650643 -0.042268753 -0.0057925014 0.031762507 0.027582848
-0.023695221 -0.0140003385 0.03801642 0.04891031 -0.06950062 -0.014310208 -0.00015957624 -0.002730132
-0.07558159 -0.013104826 0.08533822 0.0041307914 -0.01670126 0.016580226 -0.044206455 -0.016271368
0.060949534 0.03360921 0.023445187 -0.010253516 0.06621827 0.08276499 0.084269784 0.028552786
-0.03772449 0.041898392 0.080849014 0.0043221368 -0.040129915 0.048993684 -0.017714757 0.004242189
-0.020401014 0.041107465 0.08244163 0.08099121 -0.069794536 0.018572133 0.025108242 0.03377679
-0.08642404 -0.023499249 -0.0462285 0.059010323 0.013276524 0.02942873 -0.003039892 0.01204874
0.043128114 0.011500322 0.04202808 -0.03895083 -0.050654586 -0.014395661 0.020394225 -0.014506318
-0.04341818 -0.032022838 -0.049788892 0.03577005 -0.02317185 0.012286005 -0.08766949 -0.011326168
-0.045659173 -0.11407155 0.06176034 0.044289473 -0.051179755 -0.023417851 0.018455958 0.023490421
-0.02822068 -0.07750119 0.04078722 -0.04811829 0.014856405 -0.033471324 -0.07219982 -0.038010836
-0.05593286 -0.014474299 0.05250372 0.08070214 -0.09855382 -0.011072066 -0.008813935 -0.0029450927
-0.07707826 -0.07672886 -0.018090975 0.0052544684 0.016713586 0.013845744 -0.026594019 0.02552346
0.0796665 0.021194465 -0.004593605 0.023507908 0.04943471 -0.022564018 0.025412356 0.003492742
0.041439626 -0.0045054695 0.03021115 0.08942288 -0.08210414 2.2086431e-05 0.09452447 0.036592953
-0.0071731727 0.08461842 0.060777653 0.021330914 -0.043040078 0.0061537 0.015516893 -0.00030977704
0.01816831 0.016961882 -0.053004935 0.04183553 0.0044725947 -0.018633297 -0.01953675 0.0641264
-0.04455805 -0.011638626 0.05085714 0.058738302 -0.060731612 -0.037514538 -0.062430557 0.0032374586
-0.023803951 -0.057303224 0.032900814 0.015033325 -0.019250834 -0.017449625 0.0067543346 -0.0013994296
0.09185529 -0.05041707 0.00077024277 0.048490684 0.056883253 0.04054875 0.04028509 -0.027785985
-0.067841515 0.0030988432 0.021556744 0.060576443 0.033287987 0.016016852 0.008892852 -0.040152375

encoder.encoder_cnn.5.bias f4 [32]
00000000: a4d5 993c cd68 b23c 6331 4c3d 48b0 833d
00000010: 03f0 163d d0c1 dc3d b698 f03c 79f3 703d
00000020: adc0 aabc af1b 9a3d feb7 c63d 03de 5e3d
00000030: 16ed 403c 5e46 1c3d ac9b 55bc 2cc7 9fbc
00000040: f1c2 803d 220f 5c3d 667c a93d 6527 933d
00000050: 309a 093d dbc1 563d df8a 0b3b 5b80 53bd
00000060: 62b9 afbb 688b d03b b31e c73d 0aa7 25bc
00000070: 5f35 a53d 0c8d 823d 51e3 2a3d 3fe3 e03d
0.01877863 0.021778489 0.049851786 0.06430107 0.036849987 0.10779154 0.029369693 0.058825944
-0.020843828 0.075248115 0.097030625 0.054410946 0.011775276 0.038153045 -0.013037603 -0.019504152
0.06287182 0.05372537 0.0827568 0.07185248 0.03359431 0.05243097 0.002129249 -0.05163608
-0.0053626755 0.006364275 0.09722652 -0.010110626 0.0806682 0.06374559 0.041720692 0.10980844

encoder.encoder_fc.0.weight f4 [8, 288]
00000000: 82af b13c 92e6 edbc 9e07 883d 33d4 b63c
00000010: 8990 35bd 4ac3 d83c 2dc4 443d 0f60 743e
00000020: b57a 03be 8ab0 593d 5c77 153d e12f a23c
00000030: afe6 c6ba 3be5 6abc e835 8dbc f385 963d
00000040: 71c9 4dbc 0f3e 0fbd ff92 933d d6b7 163d
00000050: de6f b93d 65c7 e13c a553 f13c 25dd ee3c
00000060: b98f 76bc 30cf 653e c42d 56bd 2ac6 933d
00000070: 07bf 1f3d 7076 bb3d 647f 533d 0073 853d
00000080: b3e9 ddbc b89c 033d 2ff0 e53b 6ac0 973d
00000090: 414e 423d 8204 88bd 30cb eebd 91ec 71bc
000000a0: bf1b eabd 2d89 ff3d cfe8 2bbc b3eb 95be
000000b0: ca30 17be f4e4 dd3d 358e 8f3d 36e8 9a3c
000000c0: bfdc d9bc 623a a8bc 2490 5d3c 0dfc 4abc
000000d0: aefe cc3d f93d 7dbd babe f2bb 963f f0bc
000000e0: 6f35 77bd 80b8 b43d 4bc2 cc3d 9a23 ef3d
000000f0: 3c93 b2bc 262e 84bd 3987 6f3d d777 d83c
00000100: 037a 92bc b237 c8bd 8879 a43d 86ac 22be
00000110: e70e ac3d 64b3 113d 968c f1bd 8388 413c
00000120: b2c0 bcbb a784 c6bc 504e 39ba f160 a73d
00000130: 948c 6abd 6f07 073e a18d 593b cffd 1ebd
00000140: df4b 0a3e f396 953d 090f 633d 6228 8bbd
00000150: ba23 cf3c 8dd7 833d 3701 fb3c bc08 a5bc
00000160: e20d cc3d 7c90 e83c c24f 543d de3e 383c
00000170: 239c 7bbc adb8 8d3c 95c2 18be 59f0 a63d
00000180: 8def c6bd 32d4 943c 8752 b03d 76f7 efbc
00000190: 3585 c13d ea8a 123e 49b3 26bd 7eaa ac3c
000001a0: 4b8b b43d ca4e 5d3a f1fc 103e efc3 4a3d
000001b0: 58b1 b5bc 9246 f8bc 12b9 0fbc b241 c73d
000001c0: f426 b3bd 0325 783d bc33 2f3d de42 dd3d
000001d0: 250d d03d 1eb5 533d f68c f8bc 0cbe b83c
000001e0: ab06 5dbc 7d2f 4e3e 870f 853d 3151 0fbd
000001f0: 1f7e 3bbd c079 7dbd 2f93 263d 79f3 263d
00000200: f48d bb3d d2f1 5dbd 1cdf 59bd 91fb 38bd
00000210: cd0e f4bc fa90 ee3d c701 1d3d 5269 f3bc
00000220: 1750 10bd 8b3e 4c3a 0b4d a83a b2d5 14bd
00000230: 1986 23be c08f 9abd b733 efbc cf89 0b3c
00000240: 2801 413d bbcc 283c c55d 3b3c 7eaf 08bd
00000250: a670 00be 0606 22bd 1ecb 99bd 2525 593e
00000260: b879 353d 8873 ba38 d6bd 97bd ca1b 583d
00000270: b83b 10bd a714 343c c596 c33c 5b5b 19bd
00000280: e761 adbd 55e8 05be b495 203c cb09 be3d
00000290: 4aeb 9d3d 02be 1e3c 5e74 0b3d 66f6 00bc
000002a0: f4ed 7f3d d580 073c 9140 cbbd 31b9 a7bb
000002b0: 8df3 3cbd 3c21 6a3d 7035 2d3c 8173 2abd
000002c0: 9a11 f53c 88da 543c 2f2a 07bd 3429 1dbe
000002d0: 090a b33c f70e 8f3c 9b23 953d 40cd 0cbc
000002e0: c9e6 163e a541 7ebd 38c3 73bc ea8d 9f3d
000002f0: 6cd7 17bb 8b77 543c 4a8b 91bc cf7f 703c
00000300: 78f6 b73d 8e52 273e 86a1 c33c 0e8c 8f3c
00000310: 2cad 923c 2eef 1a3d 59e0 313d 1fe8 0e3d
00000320: e32f 2f3c e2fa 41bb 4bda ba3d 6ae0 e1bd
00000330: 88c6 33bd 3f12 b33d 7f54 56bd adf0 9dbd
00000340: c71c 60bd 88c4 c43c ba7d 713c 5ec5 813d
00000350: 121c 893d c5d4 dc3d d444 263e a7b2 63bd
00000360: 2ab9 4dbc 4587 84bc 8260 a23d f48f a73d
00000370: 1a73 173e 0ca9 10bd 9217 e0bc 3fde 5dbd
00000380: 0089 b8bd fcb7 ba3d f12c 913c 9624 c83d
00000390: 8e7f 07bc ca9f 673d d486 8fbd ab5e 673c
000003a0: 55f0 1a3e cb90 91ba 063c 333d 1195 793d
000003b0: 3867 cd3d 2315 8dbd fac7 5cbc 5720 c7bc
000003c0: b86b 71bd 837f f1bb be43 333b e5db 993d
000003d0: d096 363d fbd7 a13d d921 1abd 7f83 1dbe
000003e0: 7789 b23d 6944 983c 31ca 02be e076 2dbc
000003f0: 27e5 f93d 4e6e 753d a957 7e3d cfa2 903d
0.021690134 -0.029040609 0.06642078 0.022317981 -0.044327293 0.026460309 0.04803865 0.23864768
-0.12839778 0.053146876 0.036490783 0.019798221 -0.001517495 -0.014336879 -0.017237619 0.073497675
-0.012560234 -0.034971293 0.07205772 0.036796413 0.0905454 0.027560899 0.02945883 0.029158184
-0.015048915 0.22442317 -0.05228974 0.07215531 0.039000537 0.091534495 0.05163516 0.06516075
-0.027088976 0.03213188 0.0070171575 0.07409747 0.04743791 -0.06641485 -0.11659849 -0.0147658745
-0.114310734 0.12477336 -0.010492518 -0.29281387 -0.14764705 0.10834685 0.07009546 0.018909555
-0.026594518 -0.020535652 0.013523135 -0.012389195 0.10009514 -0.06182668 -0.0074079903 -0.029327195
-0.060353693 0.08824253 0.09997996 0.11676712 -0.021798722 -0.064541146 0.058478568 0.026424332
-0.017880445 -0.09776248 0.08030993 -0.15886125 0.0840128 0.03557147 -0.11794393 0.011812332
-0.0057602758 -0.024233175 -0.00070688594 0.08172787 -0.057262972 0.1318643 0.003319599 -0.03881627
0.13505505 0.07304182 0.05543426 -0.06794812 0.02528559 0.064375974 0.030640228 -0.020145766
0.099635854 0.028389208 0.051833875 0.011245457 -0.01535705 0.017299974 -0.14917977 0.081513114
-0.097136594 0.018167589 0.08609491 -0.029292803 0.09449235 0.14310804 -0.040698323 0.02107739
0.088156305 0.00084422214 0.1415899 0.049503263 -0.02217929 -0.030307088 -0.008772152 0.09729327
-0.08747664 0.060582172 0.042773947 0.108037695 0.10158757 0.0516864 -0.030340653 0.022551559
-0.013490359 0.20135303 0.06497102 -0.03498954 -0.045774575 -0.061883688 0.04066771 0.040759537
0.09157935 -0.054185696 -0.05319129 -0.045161787 -0.029792214 0.11648746 0.038331773 -0.029713307
-0.03523263 0.0007791302 0.0012840343 -0.03633661 -0.15969123 -0.075469494 -0.029199464 0.008516743
0.047120243 0.010302718 0.011435931 -0.033370487 -0.12542972 -0.039556526 -0.07509445 0.21205576
0.044305533 8.8906905e-05 -0.07409255 0.052760877 -0.035213202 0.010991252 0.023875603 -0.03744064
-0.08465939 -0.13076909 0.009801317 0.092792116 0.077108935 0.009688856 0.034046523 -0.007871246
0.06248279 0.008270462 -0.099244244 -0.005118512 -0.046130706 0.0571606 0.0105718225 -0.04161406
0.02991562 0.012991555 -0.032999214 -0.15347749 0.021855371 0.01746319 0.07282182 -0.008593857
0.14736475 -0.062074322 -0.014878087 0.0779074 -0.0023169173 0.012967954 -0.017766614 0.014678909
0.08982557 0.16340086 0.023880731 0.017522838 0.01790484 0.037825756 0.043426845 0.034889337
0.010692569 -0.0029599 0.09123667 -0.11029132 -0.043890506 0.087437145 -0.052326676 -0.07711921
-0.054714944 0.024019495 0.014739448 0.06336473 0.06694807 0.1078277 0.16237193 -0.055590298
-0.012556354 -0.016177783 0.07928564 0.08181754 0.14790002 -0.035317466 -0.02735499 -0.05416703
-0.09010506 0.091171235 0.017721625 0.09772603 -0.0082701575 0.05654887 -0.07008138 0.014121692
0.15130742 -0.0011105774 0.043758415 0.060933176 0.10029453 -0.06888797 -0.0134754125 -0.024307413
-0.05894062 -0.007369937 0.002735361 0.07512645 0.04457742 0.07902523 -0.037629936 -0.15382193
0.087176256 0.018587308 -0.12772442 -0.010587424 0.122019105 0.059919648 0.062095318 0.07062303

encoder.encoder_fc.0.bias f4 [8]
00000000: f7d0 8d3d 5aba e73c a7df b23d 2c96 21bc
00000010: 989b 0dbc 1140 423d 2244 dbbc 79ff 3fbc
0.069246225 0.028287102 0.087340645 -0.009862464 -0.0086430535 0.04742438 -0.026765887 -0.011718624

encoder.encoder_fc.2.weight f4 [128, 8]
00000000: 01b0 f2bc 1bc1 953e e468 71be 2498 87be
00000010: 119d b0be 959c 4d3d d40b aabc 209e 3cbe
00000020: d435 74be 489a 493e 36cb 71be d7ce 7ebe
00000030: 9a2c c1bd cdb4 abbe e12d dfbd a51d 873d
00000040: 1a43 813e a121 003d ebf2 b73e 767c bcbd
00000050: 02e0 023e 16b6 84be ec81 96bd 1f3e a43e
00000060: 29ef 613e 7e42 a7bc 3e3a 22be d9c6 0abe
00000070: 5afd a9be 2098 2f3e 22c8 943e 9e3d 40bb
00000080: 71f5 76be c55d bd3e e14f f9bd 672f 37bd
00000090: bc8d 85be b1b0 a33e 82e1 ba3d 23b9 d6be
000000a0: b8c6 c03e 75d2 653e 965e 043e b479 a73e
000000b0: 41c9 b23d c55d 4bbe 569d e7bd 4535 243e
000000c0: 9514 74be ae7f 783e 3f9a 7abe ff5e ac3e
000000d0: c51f a8bd ac89 873e 6bd4 47be a352 083e
000000e0: 608c 883e 6380 c63d 8656 fbbc 77e3 7cbe
000000f0: 652b 56be af88 2e3e 4ee0 8c3e 2bbb 3cbe
00000100: d4d9 1bbe 3b91 92be 34f7 0b3d ff1b 1fbe
00000110: 877e 403e 6265 1ebe 98a5 62bd e27f ae3e
00000120: 53a2 2bbe 190d a9be e335 ff3c e98f 81be
00000130: e327 cfbd 8c55 96be 75f6 83be 2f3c 6e3d
00000140: 2d3a 1a3e 19d2 dfbd df1a 9ebe 2f1d a7be
00000150: a202 25bd c9c9 2e3e eb99 37bd 7d91 1d3e
00000160: 496d 873d 81ce a63e e3b0 103e 0d9b 943d
00000170: 7726 52be 053e 37bd 9291 823e 725d 213e
00000180: eff5 94be 4ed2 a43e f327 5e3e 8008 53be
00000190: 427c 00bc 17a9 2d3e 21d3 233e b22d e9bd
000001a0: ce84 23bd 191d 683e 4821 483c d9c2 1ebe
000001b0: f063 873e 4c7e 8e3e b73c 0dbe 1b85 b9be
000001c0: 12a6 4bbe 4ba2 7cbe f6f7 8bbd 45ad a8be
000001d0: c9f4 9dbe eb45 f73d b830 a7bd 072e 8abd
000001e0: 732b b83d 792e fa3d 2659 923e 6d35 3bbd
000001f0: 370e a2bb f13a a2be ef70 a4be c3ff 97be
00000200: 5501 0d3e c3cf 183e 2527 f73d 7f55 3f3e
00000210: 16b2 71bd 54ac 70be 76c2 933e 81dc f8bd
00000220: bc42 b5bd deb3 57be a750 693e 6002 923e
00000230: 828c 33be ef2a ab3e db13 6d3e 66a3 c33c
00000240: 4810 0dbe 01a6 87be b7c8 443d 963e 1f3e
00000250: 6bea 7dbe ba48 833e ab2a 413e ae21 243d
00000260: c936 9fbe 303e 9fbe d4f7 7b3e 46e6 093d
00000270: b70d 15bd dd80 85be c493 35be 76f6 a43e
00000280: 74e3 783e 7689 403d 9aba 9f3e ddb8 80be
00000290: 629d 0cbe d379 113e 79de 8dbe ea30 a33e
000002a0: 76a8 583e 11bd 5a3d 5e93 95be ef82 823e
000002b0: 64e3 23be df62 86bd 264d 903e 193e 31bd
000002c0: 193c cf3e 5978 1dbd 53e6 2dbe efca 06be
000002d0: 8291 b7be b506 553e 3a60 183e 524d dd3d
000002e0: 126e c8be 5882 b63d 47ef 2f3e 4385 a23e
000002f0: fa06 24be cf83 273e d449 4d3e 2578 85bd
00000300: d765 a83d 2cff 8b3e 6e01 923d f790 eebd
00000310: f114 df3d add1 b23c 011f dfbd 81c1 63bd
00000320: 703b 3e3e 2b5a ab3e 3a9f c5bd b486 7f3e
00000330: de97 9a3e 9fd8 2d3e b1d1 2d3e ca4b 9ebe
00000340: 252d 3cbe 34b0 00be e7dd ae3e e20d 733d
00000350: 975a a0be 5c66 92be f48d 8ebe fb0e 96be
00000360: ebc9 61be 1d31 5cbe 5a86 883e ca91 26be
00000370: 60e3 b63e 16ae debd 4cde 86be 6bfb 08be
00000380: 5b28 f5bd 6fd4 67be d287 9ebe 7b4c af3c
00000390: 1ebe 8ebe be7e a6bd f8bb e5bd b6ec 3ebe
000003a0: f225 50bd 4790 89be 4216 12be 176b a83e
000003b0: b03d a63e 218b 0c3d 9cb2 303d 2111 9c3e
000003c0: 2676 a43e a9d9 36be 6c38 b73d 2387 d1bd
000003d0: 44c5 83be 7a94 ad3e 89cf 9e3e 3315 333c
000003e0: e7a3 a43e 77a1 ae3d ba2b 733e cb88 083e
000003f0: 5ade 3e3e 0909 ea3d d760 223e bc88 b33e
-0.02962494 0.2924889 -0.23575169 -0.26483262 -0.34494832 0.050198156 -0.020757593 -0.18419695
-0.23848659 0.1968776 -0.23612675 -0.2488359 -0.09432335 -0.33536378 -0.108974226 0.06597451
0.25246507 0.03128207 0.3592752 -0.092034265 0.12780765 -0.2592017 -0.073489994 0.32078645
0.22063889 -0.020417448 -0.1584253 -0.13552417 -0.33201104 0.17147875 0.2905894 -0.0029333602
-0.24117066 0.36985603 -0.12173439 -0.04472294 -0.26084697 0.31970742 0.091250435 -0.41938123
0.3765161 0.22443564 0.12926707 0.3271004 0.087297924 -0.19859989 -0.11309306 0.16035946
-0.23835976 0.24267456 -0.24472903 0.33666226 -0.082091846 0.26472223 -0.19514625 0.13312773
0.26669598 0.096924566 -0.030680906 -0.24696146 -0.20914991 0.17044328 0.2751488 -0.18430774
-0.15219814 -0.28626427 0.0341713 -0.15538023 0.18798266 -0.15468362 -0.055333704 0.34081942
-0.1676114 -0.33017805 0.031153625 -0.25305107 -0.1011503 -0.29362142 -0.2577397 0.058162864
0.15061255 -0.10928745 -0.30879876 -0.32639453 -0.040285714 0.17069162 -0.044824522 0.1538753
0.06612641 0.32579425 0.14129977 0.07256136 -0.20522486 -0.04473688 0.25501686 0.15758303
-0.29093882 0.321917 0.21694927 -0.20608711 -0.007842125 0.16959034 0.15998508 -0.11385669
-0.039921574 0.2266735 0.012214966 -0.15504016 0.26443434 0.27830732 -0.13792692 -0.36234364
-0.1988757 -0.24671285 -0.06834404 -0.32944694 -0.3085082 0.12073883 -0.08163589 -0.0674706
0.08992662 0.12215895 0.2858364 -0.045705248 -0.004945542 -0.31685594 -0.32117411 -0.29687318
0.1377004 0.14923005 0.12068013 0.18684958 -0.059007727 -0.23503238 0.288593 -0.12151433
-0.08850619 -0.21064708 0.22784673 0.28517437 -0.17534068 0.33431193 0.23152106 0.023881625
-0.13775742 -0.26493838 0.04804298 0.15551218 -0.24796455 0.25641423 0.18863933 0.040071182
-0.31096485 -0.31102133 0.24606258 0.03366687 -0.036390033 -0.26074877 -0.1773215 0.32219285
0.24305516 0.047006093 0.31197053 -0.2514104 -0.13731912 0.14206629 -0.27708796 0.31873256
0.21158013 0.053402964 -0.29213995 0.2549052 -0.16004711 -0.06561827 0.2818386 -0.04327211
0.40475538 -0.03844485 -0.16982393 -0.1316335 -0.358532 0.2080334 0.14880458 0.10805763
-0.39146477 0.0891158 0.17181121 0.31742296 -0.16018286 0.16358875 0.20047694 -0.065170564
0.082225494 0.27343118 0.07129179 -0.116487436 0.10892666 0.021828497 -0.108945854 -0.05560446
0.18577361 0.3346723 -0.09649511 0.24953729 0.3019399 0.16977166 0.16974522 -0.30917197
-0.18376596 -0.12567216 0.34153673 0.05933941 -0.31319115 -0.2859372 -0.27842677 -0.29308304
-0.22049682 -0.2150311 0.26665002 -0.16266552 0.35720348 -0.10873048 -0.26341474 -0.13377158
-0.11970588 -0.2263963 -0.30962998 0.021398773 -0.27879423 -0.08129643 -0.11217493 -0.18644986
-0.050817437 -0.26867887 -0.14266303 0.32894203 0.3246894 0.03431237 0.043139085 0.30481818
0.3212139 -0.17856468 0.089463085 -0.102308534 -0.2573644 0.3390234 0.31017712 0.010930347
0.32156298 0.08526891 0.23747149 0.13333432 0.18639508 0.114275046 0.15857254 0.35065258

encoder.encoder_fc.2.bias f4 [128]
00000000: 9f62 83be 4190 10bd 3fd9 7abe 8c6e 0c3e
00000010: 9fa8 b13d ddf2 a0bc a12e 583e 179e 2b3e
00000020: 1760 0dbd 8364 073c e78f f13d fc22 a0be
00000030: 446f a03d 1f9f 353d 3c56 27bc b674 90bd
00000040: 8b23 3fbe 4628 f73d 6a45 80be 56f0 033e
00000050: 01bd 9bbe 57c4 ba3d af9a 9b3c f59a 34be
00000060: 7969 2bbe e288 eebd 0fb0 38be 0a67 aabd
00000070: 5756 a3bd 5936 9a3e cbe7 ccba 8e08 983e
00000080: c71a 87bd 8903 91be ad10 63bd 93ae 483e
00000090: 2f56 80be cd92 8e3e e88e 9cbc 2e13 943e
000000a0: 3eb7 adbd 008b 9dbe 6b74 4bbe ca2a 1b3d
000000b0: e730 7ebe ca7c 9e3e 61a7 943e 6ea2 d2bd
000000c0: b3c8 853e d16d ec3d a6d2 8cbc 52e2 b1be
000000d0: e976 9abe ed31 84be d7a0 ecbc d352 8d3e
000000e0: f32f ab3d 8368 56bd 4613 713e 6f40 213e
000000f0: 9c63 81be 7461 ca3d d9e1 c13b eaa2 033e
00000100: 20cd 3f3d 4fb2 00be 9366 25be 86f6 843e
00000110: 7707 033e b1cf 593e a36c 893e bfa8 163e
00000120: 704f 8cbe eb61 103d dca4 5d3e 7886 e1bd
00000130: bf03 953e 4844 27be 7221 adbe 7f98 af3e
00000140: 09b6 5d3e f0df 933e 4299 623e c6a4 98be
00000150: 7cef cf3d 8374 a53e d097 5fbe 73ae 8a3d
00000160: 8aff e93d 6000 9fbe 4dd7 363d 261d fe3d
00000170: 6173 35bc 0a12 9ebe 5b88 233e 2056 a0be
00000180: e4f5 d03d e563 d0ba c417 053d 7c4a 87be
00000190: 0cfe 01be ce6c ddbd f8c2 2dbe 36e1 14be
000001a0: c524 2c3d 0151 af3e ca6a 0bbe 972d 95be
000001b0: e7ec ac3d 8a06 9d3e 750d bcbe 6150 973e
000001c0: e83f 8e3e cf33 b53d 3f9a 613e bf2d 50be
000001d0: 06c0 a1be 5924 9d3e f14d 283e 31b0 61be
000001e0: 9f92 58be dcba f53d ce56 5f3e 5ee9 a73e
000001f0: 6d75 243d 016c 503e 4dd7 0a3e 7731 183e
-0.2566118 -0.03529382 -0.24496935 0.13714045 0.0867474 -0.019647056 0.21111538 0.16759525
-0.034515467 0.00826371 0.11795025 -0.3127669 0.07833722 0.044341203 -0.010213431 -0.07053511
-0.18665902 0.120682284 -0.2505296 0.1288465 -0.30417636 0.0911948 0.018994657 -0.17637236
-0.16739453 -0.11647202 -0.18035911 -0.083204344 -0.079754524 0.3011959 -0.0015633045 0.29694027
-0.06596904 -0.2832301 -0.055435825 0.19597845 -0.25065753 0.27846375 -0.019111112 0.28920883
-0.08482216 -0.3077011 -0.19868629 0.037882604 -0.24823342 0.30954581 0.2903395 -0.10284887
0.26129684 0.11544383 -0.017190289 -0.3474298 -0.30168846 -0.2581934 -0.028885288 0.27602252
0.08358755 -0.052345764 0.23542508 0.15747236 -0.25271308 0.09881869 0.0059168157 0.12855116
0.04682648 -0.1256802 -0.1615241 0.25969332 0.12795816 0.21270634 0.26840696 0.14712809
-0.27404356 0.03524963 0.2164492 -0.11011976 0.2910442 -0.16334641 -0.3381458 0.34296033
0.21651472 0.28881788 0.22128776 -0.29813212 0.101531 0.32315454 -0.21835256 0.06771555
0.11425693 -0.31054974 0.04463892 0.124079034 -0.011074872 -0.30873138 0.15969984 -0.31315708
0.1020315 -0.0015898912 0.032493368 -0.26424015 -0.12694567 -0.108117685 -0.16968906 -0.14539036
0.042027254 0.3424149 -0.13614956 -0.29136345 0.08443623 0.3066905 -0.36729017 0.29553512
0.27783132 0.08847772 0.22031496 -0.20329951 -0.31591815 0.30691794 0.16435982 -0.22039868
-0.21149682 0.11998531 0.21810457 0.32795233 0.04015105 0.203537 0.13558693 0.1486262

network.1.weight f4 [64, 128]
00000000: 9219 b03d 0e14 0bbd c189 91bd 6ec2 133d
00000010: 8ccc 75bd 2f88 8c3d 8250 813d d677 dabc
00000020: 925c a0bc 52ef 053d 3bbb 69bc 0081 86bd
00000030: f7f5 81bd 5b15 893d 8471 91bc 1493 03bd
00000040: 2fff 7bbc e77b 053d a653 9fbb c8d4 40bd
00000050: d172 2d3a 5d25 803d 5b47 a3bd a5b8 f03c
00000060: 3806 b8bc 333b 84bd 422a 23bb 1f77 e33c
00000070: db26 b8bb eb06 b1bc d720 3dbd 5d08 4e3d
00000080: 3fdf 13bd 5f8d a5bd eec8 193a 42c0 8e3d
00000090: cdeb 86bd 9123 893d ac15 14bd 3eea 823d
000000a0: b41a a3ba f86f 823d 0a43 34bd a257 4fbc
000000b0: 41f9 7e3d 253d ad3c 1fce 94bd 9227 0abd
000000c0: 879f 61bb dae1 323d 1831 a5bd 1ec2 5abd
000000d0: 4c31 073d 57b9 2fbc 6cf0 f8bb 7495 293d
000000e0: 34e2 d3ba fa85 21bd 7812 263d 7f87 fd3c
000000f0: fc43 3bbd 51c9 f1bc e57b a13d 7ef5 12bb
00000100: 9bc6 7bbd e3db 633d 8d72 943d d085 37bb
00000110: 3f4f 89bd e58d 5d3d 574d 78bd 4d10 953d
00000120: 0bc7 b7bb 3bdd 3abc b499 82bc ed75 963a
00000130: 2a68 fd3c 923e c33c 64a1 0e3d f270 1cbc
00000140: 8a3f 993d 0949 313c a550 bfbb 7910 953d
00000150: 8bdd 943d f553 29bd 5bfd b33c c149 333d
00000160: 386d 8a3c cb2d a03d fd9f 78bc 9f20 e9bc
00000170: af5f 943c f11e 4bbd 9e56 023c 3362 de3c
00000180: 6a89 503d 32de c83c a1e5 1ebd 5bf3 ce3c
00000190: ffcc cebc f098 b9bc 3fd4 843d 1a71 fb3c
000001a0: d6c7 273c 0ebb 21bd 937e 773d b2cf 9bbd
000001b0: 84c2 68bd 722a 04bd fc11 ac3d d039 8c3c
000001c0: 2ee6 6c3c 406c ba3c 405c 3ebb 0689 01bc
000001d0: e585 d53c 8e24 5fbd 23cc 21bd f6e0 123d
000001e0: 4ea8 e0bb a3ec 98bd e967 63bd 03ad f4bc
000001f0: 57d6 92bd 579c 1fbd e38c b1bd eafc 113d
00000200: d541 f8bc 8ea6 783c 874b d53b 5edf 82bc
00000210: b6ee 4b3d 44e0 97bd b5b4 813c 046c d3ba
00000220: 5bd7 1abd faf4 da3b f6b8 1a3d 7a72 a73d
00000230: 4918 0b3d 6951 003d ac45 bc3d c9f4 383d
00000240: 8296 99bd 11db 67bc b1a2 243d fdb1 10bd
00000250: 76a4 8abd e632 903d 0ca5 8e3d 3678 ae3c
00000260: 7cb3 9a3c 0c70 613c 881e 94bc b9be 4fbd
00000270: e190 82bd 1c15 0dbd fb27 01bd a722 203d
00000280: 0b9c 353d 37dd 9dbc 1c5e 413d 6edf 65bd
00000290: 83d1 b03d e99a 77bd 52d3 933d b15b 993d
000002a0: 7860 9b3d 165f 33bd cc55 abbd d965 9c3d
000002b0: 9bd6 f53b 4596 b5ba 182d 123d 39b7 e8bb
000002c0: f35a 8e3c cbc6 96bd 9869 713b edd2 433b
000002d0: a213 6a3d 2314 93bd ef40 433d 5eba 18bd
000002e0: 0bb2 d6bc 207b 463c ef38 933c f922 6cbc
000002f0: f95e 2e3d 8729 f9bc cb8a 823d b152 ccba
00000300: cfa3 2abd 571d 78bb cae8 fabc 9324 48bd
00000310: c284 f2bc b402 063d a01b 8cbd 7aa2 573b
00000320: 4663 0fbd cccb 92bd 98f7 b6bd 7fca 91bd
00000330: 6ba8 90bd 06b8 c6bc d352 0e3d ff16 47bc
00000340: 7008 913c 5eb0 8f3d 983a a63d 2189 233c
00000350: 8a38 74bd 59c2 9c3d 6b99 a23c 5d3f 9a3d
00000360: 5a16 87bd 3410 65bd e1f8 b13c fe8e 8b3d
00000370: 19a8 dd3c aeef 943d 17ff 61bd a58d 8e3d
00000380: 9af5 1f3d cc48 89bd 0ca1 253d c55f 49bd
00000390: c036 a13d 7279 c73d 12db 693b 712a a63d
000003a0: eeb0 9ebd 79f0 2a3c 4cc9 a43c 6665 e03c
000003b0: 971c 283d 54be 07bd 087f bb3d 0907 333d
000003c0: a3af e4bc af50 6fbd c0e6 843d fd29 33bd
000003d0: e0a7 f83c f78e 9fbd 213f afbd e5ff 57bd
000003e0: 46cd b0bd 8a34 983d 65c5 a93c e91d c23d
000003f0: 93ae 8fbc 8073 563d d044 41bd 0592 3a3d
0.08598627 -0.033954673 -0.071063526 0.036074094 -0.060009524 0.068619125 0.06314184 -0.02666847
-0.019575391 0.032698937 -0.014265831 -0.065675735 -0.06345742 0.06693526 -0.017754324 -0.032122687
-0.015380665 0.032588866 -0.0048622666 -0.047077924 0.0006616535 0.062571265 -0.07972594 0.02938492
-0.022463903 -0.06456604 -0.0024897014 0.027766762 -0.0056198663 -0.021609744 -0.046173897 0.050300945
-0.036101576 -0.08083605 0.00058664277 0.06970264 -0.06587944 0.06696237 -0.03615348 0.063923344
-0.0012443871 0.063690126 -0.044009246 -0.012655171 0.062249426 0.02114732 -0.07265877 -0.033729143
-0.003442736 0.04367242 -0.080660045 -0.05340778 0.033005998 -0.010725341 -0.00759702 0.041402295
-0.0016165436 -0.03943441 0.040544957 0.030948399 -0.04571913 -0.02951494 0.07884959 -0.0022424157
-0.0614687 0.055629622 0.07248411 -0.0028003342 -0.06704568 0.0540904 -0.060620632 0.072785
-0.0056084446 -0.0114052845 -0.015942432 0.0011479236 0.030933458 0.023833547 0.034821883 -0.009548413
0.07482822 0.010820636 -0.005838471 0.072785325 0.072688185 -0.041339833 0.021971395 0.04377151
0.016897783 0.07821234 -0.015174863 -0.028457938 0.018112032 -0.049590055 0.007955221 0.027146434
0.0509123 0.024520013 -0.03879321 0.025262525 -0.025244234 -0.022655934 0.06485795 0.03069358
0.010240516 -0.03948503 0.060423445 -0.07607974 -0.05682613 -0.03226704 0.08401868 0.01711741
0.014459176 0.022756696 -0.0029046685 -0.007906204 0.026064822 -0.05447822 -0.03950132 0.03585907
-0.006856001 -0.0746701 -0.05551902 -0.029867655 -0.07169788 -0.038967457 -0.0866945 0.03564159
-0.030304829 0.0151764285 0.0065092477 -0.01597565 0.0497882 -0.07415822 0.015833238 -0.0016130214
-0.037803035 0.0066820355 0.03777405 0.081761315 0.033958707 0.03132764 0.09192976 0.04515532
-0.0749941 -0.014151351 0.040194217 -0.035325993 -0.0676965 0.07040958 0.06965074 0.021297555
0.018884413 0.013759624 -0.018080965 -0.050718997 -0.0637529 -0.03444396 -0.03153227 0.039095547
0.044338267 -0.019270523 0.04720889 -0.056121282 0.08633711 -0.06045047 0.072180405 0.07488192
0.07586759 -0.043791853 -0.08365974 0.076366134 0.0075023896 -0.0013853988 0.035687536 -0.00710192
0.017377352 -0.073621355 0.003683662 0.002988036 0.05714763 -0.07181575 0.047669347 -0.03728711
-0.026207944 0.012114316 0.017971484 -0.014412635 0.04257104 -0.03041531 0.06374129 -0.0015588609
-0.041660126 -0.0037859285 -0.03062858 -0.048863005 -0.02960432 0.03271742 -0.068412066 0.003290324
-0.035006784 -0.071677774 -0.089339435 -0.07118701 -0.07063373 -0.024257671 0.034746956 -0.012151479
0.017704219 0.07016061 0.081166446 0.009981425 -0.059624232 0.076542564 0.019848546 0.07531617
-0.0659606 -0.055923656 0.02172512 0.06814383 0.027057694 0.07272278 -0.055174913 0.0696061
0.039052583 -0.06703338 0.04043679 -0.0491636 0.07871771 0.09739961 0.0035683555 0.08113564
-0.077485904 0.01043331 0.020115517 0.0273921 0.04104289 -0.033140495 0.09155089 0.04370788
-0.027915781 -0.058426555 0.064893246 -0.043741215 0.030353487 -0.0779094 -0.08556963 -0.052734274
-0.08632903 0.07431896 0.020724008 0.09478361 -0.017539298 0.052356243 -0.047184765 0.04554941

network.1.bias f4 [64]
00000000: 1801 bb3c f9dd c4bd f9f6 48bd f731 2fbd
00000010: f33c 66bc bb09 4ebc 2703 66bd 127e 1fbd
00000020: e538 9e3c d4bd 76bd 46d1 583c 2547 8b3d
00000030: 1a66 a6bd 9f50 6b3d 6100 62bd 9eb6 373d
00000040: 929e 453d 86dd 953d 8000 1ebc a871 8e3d
00000050: 60ac 3e3d a8c4 123d f03a 033d a0ef c83b
00000060: d125 263d 8fe7 1dbd e1c1 ac3d 17f9 8a3d
00000070: c8bd debc 7506 003a 33e4 383c 3e8f 913d
00000080: 31e1 8d3c f6d1 aabc f32b 20bd e4c9 513d
00000090: 07bd 85bd 8d11 923d c83e 16bd 9205 a6bd
000000a0: 0c00 b93d f171 8fbd e173 8ebd 8a84 1c3d
000000b0: 23fc 983d 5bdb 2c3d c05e 7fbc b549 4aba
000000c0: 77b7 79bd 9204 d2bc 4cac a4bd 9e62 ac3d
000000d0: b15c b7ba 9cd2 cd3c c509 a73c 5fa6 bc3c
000000e0: 9df5 fabc b20f 0abd 1df4 acbd 66a4 b7bc
000000f0: 08d0 b4bc 1b06 693c f2f6 eaba 8b79 ee3c
0.02282767 -0.096126504 -0.049063656 -0.04277226 -0.014052617 -0.012575562 -0.05615535 -0.03893859
0.019314239 -0.060239628 0.013233488 0.06800679 -0.08124943 0.057449933 -0.055176143 0.04485189
0.048246928 0.07317643 -0.009643674 0.06955272 0.04655111 0.035832077 0.03203863 0.006132081
0.04056341 -0.03855091 0.08435417 0.06785791 -0.027190104 0.00048837747 0.011284876 0.071073994
0.017319294 -0.02085207 -0.039104413 0.05121793 -0.06530195 0.07132254 -0.036680967 -0.08106531
0.09033212 -0.070041545 -0.06955696 0.038212337 0.07469966 0.04220138 -0.015586555 -0.00077166717
-0.06096598 -0.025636945 -0.080406755 0.08417247 -0.0013989416 0.02512484 0.0203904 0.02302855
-0.030634696 -0.033706374 -0.084449984 -0.022417258 -0.022071853 0.014222647 -0.0017926379 0.02911069
