plankton-cnn-small-final.pt (torch, 266433 bytes, 12 tensors)

network.0.weight f4 [8, 3, 4, 4]
0	0xbc92ac94	-0.017904557
1	0x3d15f4d2	0.036610432
2	0xbd03a45c	-0.032139167
3	0x3d7acc75	0.06123014
4	0x3d154225	0.036440033
5	0x3e25008e	0.16113493
6	0x3dd1211c	0.10211393
7	0x3dd1a2c6	0.10236125
8	0xbc3e750d	-0.011624587
9	0x3e0523f9	0.13002004
10	0x3e511f0a	0.20421997
11	0x3e414353	0.18873338
12	0xbd054914	-0.032540396
13	0x3d108134	0.035279468
14	0xbcf629d0	-0.030049235
15	0x3dae402f	0.08508336
16	0xbb8f8b80	-0.0043806434
17	0x3e1179af	0.14206575
18	0xbd0e7dd8	-0.034787983
19	0x3dc1e6ca	0.09467848
20	0x3d24a21b	0.04019366
21	0xbd18fe53	-0.037351917
22	0x3e455114	0.1926921
23	0xbd84b7cb	-0.06480368
24	0x3e11c713	0.14236097
25	0x3d826f14	0.06368843
26	0x3d411845	0.047142286
27	0x3e0ba9fd	0.13639064
28	0xba070aae	-0.00051514327
29	0x3d36f0a2	0.04466308
30	0x3d7d212d	0.061799217
31	0x3e4113fc	0.1885528
32	0xbd4ad1d7	-0.049516525
33	0xbd0f7a1c	-0.035028562
34	0x3e0e6738	0.13906562
35	0x3e01c67a	0.12673369
36	0x3db035a2	0.0860398
37	0x3e27e223	0.16394858
38	0xbc317a12	-0.0108323265
39	0xbc8f165a	-0.017466713
40	0x3d87e3ba	0.06635232
41	0x3df11242	0.117710605
42	0xbc4a03f3	-0.012330043
43	0x3d84a91e	0.06477569
44	0x3e0691f9	0.13141622
45	0x3e1b72c7	0.15180503
46	0x3e1d0358	0.15333307
47	0xbd19c1fd	-0.037538517
48	0xbe46d80b	-0.19418351
49	0xbd4a19de	-0.049341075
50	0xbd810696	-0.06300084
51	0xbe5470e4	-0.2074619
52	0xbe22a144	-0.1588183
53	0xbddd7910	-0.108141065
54	0xbe54e8cd	-0.20791931
55	0xbdacd9b7	-0.08439963
56	0xbd63476e	-0.055488043
57	0xbe06d327	-0.13166486
58	0xbdd1d9d5	-0.10246626
59	0xbbc4e76c	-0.006009033
60	0x3c9413d1	0.018075855
61	0xbe410c45	-0.18852337
62	0x3d1cc4b6	0.038273536
63	0x3b582b9e	0.0032984982
64	0xbe448dad	-0.1919467
65	0xbe107766	-0.14108047
66	0xbdfb2370	-0.122626185
67	0x3d889ba3	0.0667031
68	0xbe1bcf34	-0.1521576
69	0xbce9e1d9	-0.028550075
70	0xbcd4a742	-0.025958661
71	0xbda9ff09	-0.08300597
72	0xbe1229da	-0.14273778
73	0x3d345e63	0.044035327
74	0x3d1b858b	0.037969153
75	0xbc4f03e6	-0.012635207
76	0xbe0b8d46	-0.1362811
77	0xbe115db8	-0.14195907
78	0xbe2c8adc	-0.16849846
79	0xbe3ed5ec	-0.18636292
80	0x3c47e1d7	0.0121998405
81	0x3d197e7c	0.03747414
82	0x3db03b4e	0.086050615
83	0x3d30fe67	0.043211367
84	0xbd61c7aa	-0.055122055
85	0x3dabcced	0.08388696
86	0xbce39a39	-0.0277835
87	0xbd038035	-0.03210469
88	0xbd9f89e6	-0.07789974
89	0xbbc71379	-0.0060753194
90	0x3ab06439	0.0013457603
91	0xbe3ffbf5	-0.18748458
92	0xbdb8d0f5	-0.090242304
93	0xbdbfb071	-0.093598254
94	0xbdee98cc	-0.116502374
95	0xbdb7babd	-0.089711644
96	0x3de3102f	0.11087071
97	0x3dafed3e	0.08590172
98	0x3d5afcbc	0.053463683
99	0x3dacdeab	0.08440908
100	0x3de56cb1	0.11202372
101	0x3b70d999	0.0036750792
102	0x3d8f35d4	0.06992689
103	0x3c7b1cc0	0.015326679
104	0x3d8e20d1	0.06939853
105	0x3d2a6961	0.041604403
106	0x3e43beba	0.19115725
107	0x3d10add8	0.03532204
108	0x3e66bef7	0.22533785
109	0x3e5083ab	0.20362727
110	0x3e4bdcfc	0.19908518
111	0x3d908c65	0.07058028
112	0x3da172ba	0.078832105
113	0x3de7f3c9	0.11325795
114	0xbd2ab616	-0.041677557
115	0x3e35cfb7	0.17755018
116	0x3d68e8eb	0.056862753
117	0x3bc1e78b	0.0059174947
118	0x3d5c316a	0.053758062
119	0x3e2da584	0.1695767
120	0x3d628eb0	0.05531186
121	0x3e10e33d	0.14149185
122	0x3d12f1b9	0.035875056
123	0x3e5a5c68	0.21324313
124	0x3dd23476	0.102639124
125	0x3e53268d	0.20620175
126	0x3d0c9c2c	0.034328625
127	0x3de4b61f	0.11167549
128	0x3c8a8b6b	0.016912183
129	0x3e3f6ea8	0.18694556
130	0xbd1f1785	-0.03884079
131	0xbcf4b72c	-0.0298725
132	0x3dd33884	0.10313514
133	0x3e04afe0	0.12957716
134	0x3d5bc384	0.053653255
135	0xbd5feb4a	-0.05466775
136	0x3e428bb1	0.189986
137	0xbd4bce53	-0.049757313
138	0xbd7eec2d	-0.062236954
139	0x3d89adc6	0.06722598
140	0x3d8b552a	0.06803353
141	0x3d5e9e06	0.05434992
142	0x3bfdc915	0.007744918
143	0x3d94e686	0.07270531
144	0xbe1856f4	-0.1487692
145	0xbde35293	-0.11099734
146	0xbe3a66f3	-0.18203335
147	0xbd1b9070	-0.037979543
148	0x3d1fa69e	0.038977258
149	0xbc52ef84	-0.012874488
150	0xbe4df009	-0.20111097
151	0xbe5c0763	-0.21487193
152	0xbe01af03	-0.12664418
153	0xbcf96876	-0.030445319
154	0xbdb24da5	-0.08706216
155	0xbe0fe17a	-0.14050856
156	0xbdaa559a	-0.083171085
157	0xbe2476f6	-0.16061005
158	0x3d836ae5	0.06416873
159	0xbe2723d1	-0.16322257
160	0xbde0d194	-0.10977474
161	0xbdc03791	-0.093855985
162	0xbe557a23	-0.20847373
163	0xbe55555f	-0.20833348
164	0xbc8afb99	-0.016965674
165	0xbe26d1ac	-0.16290921
166	0xbceb4a10	-0.02872184
167	0xbdd5f832	-0.1044773
168	0xbdead18c	-0.11465749
169	0x3c830955	0.01599566
170	0xbcdd2991	-0.02699736
171	0x3d7e11e7	0.06202879
172	0xbdcb6a7b	-0.09932419
173	0x3cc71548	0.02430214
174	0xbd6336da	-0.055472232
175	0x3c8137a9	0.015773611
176	0xbe3e1067	-0.18560944
177	0xbe1c3f3f	-0.15258501
178	0xbe216adb	-0.15763418
179	0xbd69f870	-0.057121694
180	0xbe35cf98	-0.17754972
181	0x3d2416eb	0.04006092
182	0x3da787f4	0.08180228
183	0xbe40a5bb	-0.18813221
184	0xbdce2a4b	-0.100666605
185	0xbe1cf62c	-0.15328282
186	0xbda59bb7	-0.08086341
187	0x3a08aa3a	0.0005213354
188	0xbe384d50	-0.17998242
189	0xbdcdcafd	-0.100484826
190	0xbdd02c91	-0.1016475
191	0xbe0573da	-0.13032475
192	0x3d06df8a	0.032928027
193	0xbdcfdbc1	-0.101493366
194	0xbcdda1d3	-0.027054703
195	0x3d21dd95	0.039517958
196	0xbdff3f9e	-0.12463306
197	0xbcad3b48	-0.021146432
198	0x3b294a58	0.0025831666
199	0xbe041344	-0.12897974
200	0xbdec5d98	-0.11541289
201	0xbdf64390	-0.12024605
202	0x3c9b1bd6	0.018934172
203	0xba316dc4	-0.00067683705
204	0xbe5b1848	-0.21395981
205	0xbe613eb7	-0.2199658
206	0xbe4042cc	-0.18775481
207	0xbe5adb5a	-0.21372738
208	0x3bdca932	0.006734037
209	0xbc88ed08	-0.016714588
210	0x3a459b69	0.00075381115
211	0x3c245e65	0.010032271
212	0xbe00d697	-0.1258186
213	0xbe205344	-0.15656763
214	0xbdd8a93d	-0.10579155
215	0x3d3de82c	0.046363994
216	0xbe1ebde8	-0.15502131
217	0xbe387477	-0.18013178
218	0xbce843e2	-0.028352682
219	0x3cd72d73	0.026266789
220	0xbc023407	-0.007946975
221	0xbcda4c9f	-0.026647864
222	0xbe56bab0	-0.20969653
223	0xbdbbd8ed	-0.09172235
224	0xbe3741f5	-0.17896254
225	0xbd70c869	-0.058784876
226	0xbdd7a62f	-0.10529744
227	0xbdfd644b	-0.12372645
228	0x3dbcb0dd	0.092134215
229	0xbd61c368	-0.055117995
230	0xbd4c8dba	-0.04993985
231	0xbddc1a42	-0.10747196
232	0xbd949aa3	-0.07256057
233	0xbcc82fd0	-0.024436861
234	0x3d9f4549	0.07776887
235	0xbe06cc84	-0.13163954
236	0xbd6fd398	-0.0585514
237	0xbda120d5	-0.0786759
238	0xbc13e9ff	-0.009027957
239	0xbde93387	-0.11386781
240	0x3bee2787	0.0072678956
241	0x3ddcde67	0.107846074
242	0x3df88e60	0.12136531
243	0x3dbf5957	0.09343212
244	0xbd252323	-0.040316712
245	0x3b2f77d5	0.0026774306
246	0xbd4a34c2	-0.04936672
247	0x3c54b051	0.01298149
248	0x3e3b0160	0.18262243
249	0x3e3a5193	0.1819518
250	0x3e40260c	0.18764514
251	0xbbdcdd65	-0.0067402595
252	0x3c21310a	0.009838352
253	0x3e2886f3	0.16457729
254	0x3dde44b6	0.10852949
255	0x3e1c3bea	0.1525723

network.0.bias f4 [8]
0	0x3d518a9d	0.051157583
1	0xbca8ead4	-0.020619787
2	0x3ddebec8	0.108762324
3	0x3e3d4c78	0.18486202
4	0xbd7612e3	-0.060076606
5	0x3c869787	0.016429676
6	0x3d6b5a86	0.057459377
7	0x3e40332e	0.18769524

network.2.weight f4 [16, 8, 4, 4]
0	0x3dc33262	0.09531094
1	0x3d8e428b	0.06946286
2	0xbc8640da	-0.016388346
3	0x3b3d36ec	0.0028871847
4	0xbd7bf20e	-0.06151014
5	0xbd5c64ec	-0.053807184
6	0xbc67d6dc	-0.014150348
7	0x3c2459ec	0.010031205
8	0x3db969e5	0.09053401
9	0x3d3de450	0.046360314
10	0xbd9f322a	-0.0777324
11	0xbb9a88ef	-0.004716031
12	0xbd0e3b5f	-0.03472459
13	0xbd44e90b	-0.04807381
14	0xbd1d1472	-0.038349576
15	0x3ca401a3	0.020020312
16	0x3d34aaa1	0.044108037
17	0x3d357646	0.044302247
18	0x3d2610cd	0.040543366
19	0x3db52506	0.08844952
20	0x3d1c95a5	0.03822865
21	0x3ce4755b	0.02788799
22	0x3db90e3c	0.09035918
23	0x3b9d82c9	0.0048068506
24	0x3e15e97f	0.14639853
25	0x3c12286f	0.008920773
26	0x3dfc93b9	0.12332863
27	0x3d16d2cd	0.03682213
28	0x3da9c5e1	0.082896955
29	0x3de92669	0.11384279
30	0x3dab57ce	0.08366357
31	0x3c5d25ba	0.013497764
32	0xbd5aab46	-0.053385995
33	0xbca236e9	-0.019801574
34	0x3cc596b6	0.024119716
35	0x3c843347	0.016137732
36	0x3ca467d7	0.020069046
37	0xbda1ca5f	-0.07899927
38	0xbd92ddcd	-0.071712114
39	0x3d4b1621	0.04958165
40	0x3b7bc4f8	0.0038416963
41	0x3d6b0fb4	0.057388023
42	0xbd08a079	-0.033356164
43	0x3d67e38c	0.05661349
44	0x3d68056d	0.0566458
45	0x3d94fc8a	0.072747305
46	0xbc42d01a	-0.011890436
47	0x3ba45db4	0.005016053
48	0x3df845e5	0.12122706
49	0x3d5f518f	0.05452114
50	0x3d7407ea	0.05957786
51	0x3d8094bf	0.06278371
52	0xbd2888e6	-0.04114618
53	0xbd19350f	-0.037404116
54	0x3d0e9d11	0.03481776
55	0x3d5dbe04	0.05413629
56	0x3db67751	0.089094765
57	0x3c339de6	0.010962939
58	0x3bd7744e	0.006575144
59	0x3d968fa5	0.07351617
60	0x3dc192d1	0.09451831
61	0x3d8d5068	0.06900102
62	0xbcd17fdf	-0.025573669
63	0x3d399e18	0.045316786
64	0x3e08fe53	0.13378267
65	0x3d883174	0.066500574
66	0x3e03f8ee	0.12887928
67	0x3de034ba	0.10947557
68	0x3e0c7cc3	0.13719468
69	0x3da8ae1b	0.08236333
70	0x3c57df2c	0.013175767
71	0x3df8680c	0.1212922
72	0x37b825e3	2.1952152e-05
73	0x3da710a4	0.08157471
74	0x3d070a00	0.03296852
75	0x3cb7c6bc	0.022433631
76	0x3de81f1b	0.11334058
77	0x3d569f7f	0.0523982
78	0x3d60be0d	0.054868747
79	0x3d8afa85	0.06786064
80	0xbcf1862a	-0.02948292
81	0x3cca8371	0.02472088
82	0xbceef38f	-0.029168872
83	0xbd857353	-0.06516137
84	0xbc5e5a86	-0.013571387
85	0xbda73f66	-0.08166389
86	0x3d6665c3	0.05624939
87	0x3d28aca4	0.041180268
88	0x3d66b2ed	0.05632298
89	0xbd93828e	-0.07202636
90	0xbc754128	-0.014969148
91	0xbdaad3ff	-0.08341216
92	0xbd929f6b	-0.07159313
93	0x3da4398e	0.0801879
94	0x3c4b2e91	0.012401239
95	0x3d03e2f7	0.032198872
96	0x3cb0e5a9	0.021593885
97	0x3c44b787	0.012006647
98	0xbd9d4202	-0.076786056
99	0x3db55b2a	0.08855279
100	0x3cb8d105	0.022560606
101	0xbd843d7b	-0.06457039
102	0xbd69a03d	-0.05703758
103	0x3d9e15b0	0.0771898
104	0xbd2f4932	-0.042794414
105	0x3d84ae30	0.06478536
106	0x3d6243cd	0.05524044
107	0xbd2ebb01	-0.04265881
108	0xb77ce02e	-1.5072566e-05
109	0xbd0237de	-0.03179156
110	0x3c19f13b	0.009395893
111	0xb9703c36	-0.00022910614
112	0x3dc6aa33	0.09700432
113	0xbc833aa2	-0.01601917
114	0x3bd2db9b	0.0064348704
115	0xbd335651	-0.04378349
116	0x3d9118f3	0.07084837
117	0x3c69f637	0.014279894
118	0x3d3044aa	0.043034233
119	0xbd5215f8	-0.051290482
120	0xbdb73339	-0.08945317
121	0xbd2e07cf	-0.042487916
122	0xbd7fe25e	-0.06247174
123	0x3d75e7f4	0.06003566
124	0xbd0a5d82	-0.033780582
125	0x3d453d8c	0.0481544
126	0xbd98cf91	-0.07461465
127	0x3da15211	0.07876981
128	0x3c23aead	0.009990376
129	0x3b7a3b26	0.0038182228
130	0x3dea58ca	0.114427164
131	0x3d6c1a02	0.05764199
132	0x3d2c9dcd	0.042142678
133	0x3e084cec	0.13310593
134	0x3c0df859	0.008665168
135	0x3ca18242	0.019715432
136	0x3c4b0d9b	0.0123933805
137	0xbb777bc7	-0.0037762986
138	0xbd342923	-0.043984544
139	0xbb36caec	-0.0027891947
140	0x3d06c6e7	0.03290453
141	0xbc847651	-0.016169699
142	0x3d90bfe1	0.07067848
143	0x3d625832	0.05525989
144	0xbaad9ce2	-0.0013245607
145	0xbd59abfe	-0.05314254
146	0x3cfd536f	0.030923573
147	0x3cafbbbb	0.021451822
148	0xbc6fa520	-0.014626771
149	0x3d8e35ce	0.06943856
150	0x3daeaea4	0.08529404
151	0x3dbae98b	0.09126576
152	0xbd1ffd82	-0.039060123
153	0xbcb73117	-0.022362275
154	0x3dc10b9a	0.09426041
155	0x3d1ba7a6	0.03800168
156	0x3dbf35cf	0.09336435
157	0xbd59367d	-0.05303048
158	0x3b69796e	0.0035625356
159	0x3dc6fc17	0.09716051
160	0x3d8bca42	0.06825687
161	0x3e0a29d6	0.13492522
162	0x3dc81fc1	0.097716816
163	0x3d0c63ff	0.03427505
164	0x3db0241d	0.08600638
165	0x3d8fa017	0.070129566
166	0x3d1a1a30	0.03762263
167	0x3db6fe9f	0.08935284
168	0x3dafccd1	0.085839875
169	0xbb148a3a	-0.0022665397
170	0x3dd2dc06	0.102958724
171	0x3d4740be	0.048645727
172	0x3dde89eb	0.108661495
173	0xbc98377e	-0.018581148
174	0x3d8a74ed	0.06760583
175	0x3d8c362c	0.0684627
176	0xbd83b0a3	-0.06430175
177	0xbd873ead	-0.06603751
178	0xbdaed90b	-0.085374914
179	0xbd881f36	-0.06646578
180	0xbcb98a9b	-0.0226491
181	0x3c4be8d6	0.012445649
182	0xbd9e1373	-0.077185534
183	0xbd499d0f	-0.04922205
184	0x3d654972	0.055978246
185	0xbd9b9be8	-0.07598096
186	0xbd2c3c6b	-0.042049807
187	0x3c6c6a89	0.014429697
188	0x3d6b162b	0.057394188
189	0xbd1497e6	-0.036277674
190	0xbd6ba8ae	-0.057533912
191	0xbc8ca910	-0.017170459
192	0xbdc9c21e	-0.09851478
193	0x3d353433	0.044239234
194	0xbd684995	-0.0567108
195	0xbd14fe9a	-0.03637562
196	0xbdb6a00e	-0.08917247
197	0x3c36d4ea	0.011159161
198	0xb9f81e35	-0.00047324752
199	0xbcc0733d	-0.02349245
200	0x3d865cff	0.06560706
201	0xbd09c5f1	-0.033636037
202	0xbcbad07e	-0.022804495
203	0x3dd26f76	0.10275166
204	0x3d8ff404	0.07028964
205	0x3c69347f	0.014233707
206	0x3a3836e1	0.00070272206
207	0x3d63b783	0.055594932
208	0x3dbb7d41	0.0915475
209	0x3c5e2ff4	0.013561238
210	0x3dc8d08b	0.098054014
211	0xbca60475	-0.020265797
212	0xbc78d8e8	-0.015188433
213	0x3ded3944	0.11583188
214	0x3df93b65	0.12169532
215	0x3caeea5d	0.021351987
216	0x3d23eef1	0.040022794
217	0xbce2fab3	-0.027707433
218	0x3d108116	0.035279356
219	0xbc40a04c	-0.011756968
220	0x3ca5dc5e	0.02024668
221	0x3d8e3976	0.069445536
222	0x3d45c39b	0.048282247
223	0x3dddcbe0	0.10829902
224	0x3d8e7200	0.069553375
225	0x3dd72083	0.10504248
226	0x3db7dd47	0.08977752
227	0x3df6aacc	0.12044296
228	0x3d9309db	0.07179614
229	0x3e069598	0.13143003
230	0x3d5e1264	0.054216757
231	0x3dff4ff1	0.124664195
232	0x3d04d19c	0.03242646
233	0x3dbd3c64	0.09240034
234	0x3ca47b8f	0.020078449
235	0x3df2f7c1	0.118636616
236	0x3dc0b6b2	0.09409846
237	0x3d1d8c0d	0.03846364
238	0x3cc622bb	0.024186483
239	0x3d985e24	0.07439831
240	0x3d3906df	0.04517257
241	0xba002121	-0.0004887749
242	0x3dab5bbb	0.083671056
243	0x3e06dbb7	0.13169752
244	0x3d85f24b	0.06540354
245	0x3db35fb3	0.087584876
246	0x3cfdf15c	0.030998878
247	0xbc863307	-0.016381754
248	0x3ded50b8	0.115876615
249	0x3c4f6271	0.012657748
250	0x3d61629e	0.05502569
251	0x3bedef3e	0.007261186
252	0x3db373e9	0.087623425
253	0x3e0c2fba	0.13690081
254	0x3e038f87	0.1284772
255	0xbbb39dc9	-0.005481456

network.2.bias f4 [16]
0	0xbcce0b6a	-0.025151927
1	0x3d925fb6	0.07147162
2	0x3d220109	0.03955177
3	0x3e00085e	0.12503192
4	0x3d5acee7	0.053419974
5	0x3daac030	0.08337438
6	0x3bea1acc	0.0071443077
7	0x3d642d23	0.05570711
8	0xbd058b91	-0.032603804
9	0xbd45882f	-0.048225578
10	0x3d4d4ebf	0.050123926
11	0x3d960a67	0.07326203
12	0xbcf9fd36	-0.030516248
13	0x3db40a7e	0.08791064
14	0x3dfac4eb	0.1224459
15	0xbd0f3ef5	-0.03497215

network.5.weight f4 [32, 16, 4, 4]
0	0xbc993149	-0.018700259
1	0x3d87f931	0.06639326
2	0xbc55371a	-0.0130136255
3	0x3d3591f3	0.04432864
4	0xbc59cb43	-0.01329309
5	0xbb33222a	-0.0027333596
6	0x3c38b2c4	0.01127309
7	0xbd46b943	-0.048516523
8	0xbd276470	-0.04086727
9	0x3c2ed080	0.010669827
10	0xbd1279df	-0.035760757
11	0xbd0c6dc3	-0.034284364
12	0xbd21de6e	-0.039518766
13	0x3d1464e8	0.036229044
14	0x3ccdebbc	0.025136821
15	0xbd39a95f	-0.04532754
16	0x3d6213a1	0.0551945
17	0xbb4dadb1	-0.0031384046
18	0x3d006036	0.031341754
19	0xbcceab5a	-0.025228191
20	0x3bd07322	0.006361381
21	0x3dadaec6	0.08480601
22	0x3bda7693	0.006666967
23	0x3c476f56	0.012172541
24	0xbd4e6f0d	-0.050398875
25	0x3c48e5b0	0.012261793
26	0x3d0c8491	0.034306113
27	0x3d1b3a25	0.037897248
28	0x3d494b5b	0.04914413
29	0x3d94fcd0	0.07274783
30	0x3d6ad591	0.05733258
31	0x3dc3a18f	0.09552299
32	0xba7c6474	-0.0009628006
33	0xbceeef94	-0.029166974
34	0xbd6f447a	-0.058414914
35	0xbc413aae	-0.0117937755
36	0xbd7c2a9f	-0.061564084
37	0x3ccce133	0.025009727
38	0x3a46e547	0.00075872656
39	0xbc988adb	-0.018620899
40	0x3d69069b	0.056891065
41	0x3c82178c	0.015880369
42	0xbc112411	-0.008858697
43	0x3ccf8a62	0.02533454
44	0xbcab9560	-0.020945251
45	0x3909a984	0.00013128488
46	0x3d38a352	0.04507763
47	0x3d071936	0.032983027
48	0xbd044278	-0.032289952
49	0x3b9025bd	0.00439903
50	0x3d6c0864	0.05762519
51	0xbc4d699b	-0.012537385
52	0x3d10af81	0.035323624
53	0x3d2b933c	0.04188846
54	0x3d803b6e	0.06261335
55	0x3da15492	0.07877459
56	0xbd61fbc6	-0.05517175
57	0x3d06d80b	0.03292088
58	0x3ce20815	0.027591744
59	0x3d633eab	0.055479687
60	0x3d8fb272	0.070164576
61	0x3c9c5711	0.019084485
62	0x3d2dbd31	0.042416755
63	0x3d373986	0.044732593
64	0xbcbc83fd	-0.023012156
65	0x3b1ac039	0.0023613109
66	0xbcb8ac3a	-0.022543062
67	0xbcddeb17	-0.027089639
68	0xbb85f361	-0.004087851
69	0x3d1f946c	0.038959906
70	0x3d1376b8	0.03600189
71	0x3b5d21ec	0.0033742143
72	0x3cb34b99	0.021886634
73	0xbc982d67	-0.018576337
74	0x3b6e4de4	0.0036362344
75	0xbd1ecae5	-0.038767714
76	0xbd1c96b3	-0.038229655
77	0x3cc78222	0.024354044
78	0x3a9306de	0.0011217257
79	0x3a9788cf	0.0011561158
80	0xbb6191bc	-0.003441914
81	0xbce10071	-0.02746603
82	0xbd69a60a	-0.057043113
83	0xbd882f18	-0.066496074
84	0xbd09fab5	-0.03368636
85	0xbd0de333	-0.034640502
86	0x3cb7e025	0.022445748
87	0x3d86eb98	0.06587905
88	0x3cd68b99	0.026189612
89	0xbd11a0a2	-0.035553582
90	0x3d0224ba	0.031773306
91	0xbd415516	-0.047200285
92	0xbca7d20f	-0.020485906
93	0xbab49c4f	-0.0013779494
94	0xbc07987d	-0.008276102
95	0x3cba0e21	0.022711815
96	0xbd32ba14	-0.04363449
97	0xbc85c3e8	-0.016328767
98	0x3ca11c5b	0.019666841
99	0x3d331f08	0.043730766
100	0xbdb8d97a	-0.09025855
101	0xbc10021d	-0.008789566
102	0xbd8628c7	-0.065507464
103	0x3cd199c9	0.025586026
104	0xbd398ce1	-0.04530037
105	0xbbb3955b	-0.005480451
106	0xbda59d73	-0.08086672
107	0x3c74e4b1	0.014947102
108	0xbbc8ed43	-0.0061317994
109	0x3be5ec04	0.0070166606
110	0xbd4b858f	-0.04968792
111	0x3c1e3494	0.00965609
112	0x3c57809c	0.013153221
113	0xbca09c6d	-0.01960584
114	0xbd554f40	-0.05207753
115	0xbcd5206f	-0.026016442
116	0xbc4b8e4d	-0.012424064
117	0x3d5591fd	0.05214118
118	0xbc28c56a	-0.010300973
119	0x3da08c09	0.078392096
120	0xbd850cf5	-0.06496612
121	0x3c912c88	0.01772143
122	0x3d5b9ffe	0.053619377
123	0x3d963468	0.073342144
124	0xbd645378	-0.055743665
125	0x3d0df60d	0.03465848
126	0x3da82e4a	0.08211954
127	0x3d698df8	0.057020158
128	0xbd856e00	-0.065151215
129	0xbc454c87	-0.012042171
130	0x3d5eb6af	0.05437344
131	0x3d70fa66	0.05883255
132	0x3b70c013	0.003673558
133	0x3c5ac1e0	0.013351887
134	0xbd463cdb	-0.04839788
135	0x3cfafa8e	0.030637052
136	0xbd2ca367	-0.04214802
137	0x3d80b8aa	0.06285222
138	0xbd43bdbf	-0.047788378
139	0xbc20d5d8	-0.009816609
140	0x3c20cc6c	0.009814363
141	0x3d77ce14	0.060499266
142	0x3c0d03c3	0.008606854
143	0x3c1ed7ca	0.009695003
144	0x3ce790f1	0.028267356
145	0x3cf48a35	0.029851058
146	0xbd6d9fa9	-0.058013592
147	0x3bd7c831	0.006585144
148	0x3d0214ef	0.031758245
149	0xbd59ab1d	-0.053141702
150	0x3d66cedb	0.056349616
151	0x3d2045c1	0.039129023
152	0x3d078b08	0.033091575
153	0x3d788b19	0.06067953
154	0x3cb5f700	0.022212505
155	0x3d69536d	0.056964327
156	0xbbee8565	-0.0072790855
157	0xbd290b3a	-0.041270472
158	0xbd3f0cdf	-0.046643134
159	0xbb296e8f	-0.0025853252
160	0xbd5a3e3f	-0.05328202
161	0xbd1619e1	-0.036645774
162	0xbca4ba19	-0.02010827
163	0x3d4ff3f4	0.05076976
164	0x3c40ce80	0.011767983
165	0x3d62e7dc	0.0553969
166	0xbd1281fd	-0.035768498
167	0x3d598209	0.053102527
168	0x3c6b315e	0.014355032
169	0xbc3a9d15	-0.01138999
170	0x3d73a5df	0.05948436
171	0x3d695145	0.05696227
172	0xbd467993	-0.048455786
173	0x3d39d0dd	0.045365203
174	0x3d94669a	0.07246132
175	0x3d4ded8a	0.050275363
176	0x3bfb3ea5	0.00766738
177	0x3c42ea5d	0.011896697
178	0xbc36e07a	-0.011161918
179	0x3d139ade	0.036036365
180	0xbd13efbb	-0.036117297
181	0x3d602f06	0.054732345
182	0x3cd8c64b	0.026461741
183	0x3d2d1939	0.042260382
184	0x3bbd739a	0.005781603
185	0x3c04153a	0.008061701
186	0x3d32b045	0.043625135
187	0xbbf50bf7	-0.007478233
188	0xbcf60d8f	-0.030035762
189	0x3da0e0fe	0.07855414
190	0x3da03bd5	0.07823912
191	0x3dc734a5	0.09726838
192	0x3d46a61d	0.04849826
193	0xbd56b39b	-0.05241738
194	0x3d5f7651	0.054556195
195	0x3c9f496e	0.019444194
196	0xbd137fec	-0.036010668
197	0x3d8c661e	0.06855415
198	0xbce94ae2	-0.02847809
199	0xbd2808ca	-0.041024007
200	0xbc6b4962	-0.014360758
201	0x3ccb8734	0.024844743
202	0xba66e688	-0.00088081555
203	0x3ce26d84	0.027640112
204	0xbd5e8c72	-0.054333158
205	0xbc03f0ea	-0.008053044
206	0xbbb1210f	-0.005405552
207	0x3dac3bf3	0.08409872
208	0xbd7d3038	-0.061813563
209	0xbd7312ad	-0.059343982
210	0x3c9da1ac	0.01924213
211	0xbb1ef25b	-0.0024253342
212	0xbcd6167d	-0.02613377
213	0x3c559d4c	0.013037991
214	0x3c064613	0.008195418
215	0x3d401584	0.04689552
216	0x3ce819aa	0.02833255
217	0x3d74717a	0.059678532
218	0xbce84a22	-0.028355662
219	0x3d2e9c71	0.042629663
220	0xbd4043d1	-0.046939675
221	0x3ca10e66	0.019660186
222	0xbafcd9b3	-0.0019290954
223	0xbce8aeab	-0.0284036
224	0x3cd72049	0.026260512
225	0x3d87263e	0.06599091
226	0xbc6ffc98	-0.014647625
227	0xbd3510b5	-0.044205386
228	0xbcc12636	-0.02357779
229	0x3d92f626	0.07175855
230	0x3d7679d8	0.060174793
231	0x3d0d61a6	0.034516953
232	0xbc900bef	-0.017583815
233	0x3d8519f5	0.064990915
234	0x3c7d80c9	0.015472599
235	0xbccc7623	-0.024958676
236	0xbcab68bb	-0.020923963
237	0x3dac4e83	0.084134124
238	0x3dad0f27	0.08450156
239	0x3c89ab56	0.016805332
240	0xbd6d48e7	-0.057930853
241	0xbd9685b5	-0.07349721
242	0xbd4901bb	-0.049073916
243	0xbca5cdbc	-0.020239703
244	0x3d113939	0.035454962
245	0xbd416fbe	-0.047225706
246	0x3cb32bfa	0.021871556
247	0xbc7f6c06	-0.01558972
248	0x3cb1fe22	0.021727625
249	0x3cc9cae1	0.024632873
250	0x3d502c16	0.050823294
251	0xbd12fd9c	-0.035886392
252	0x39499b6d	0.00019226754
253	0x3ca95c10	0.020673782
254	0x3c453f45	0.01203901
255	0xbd8ecfa5	-0.06973199

network.5.bias f4 [32]
0	0xbc44be46	-0.012008255
1	0xbd424b03	-0.047434818
2	0xbbdf7bb7	-0.006820168
3	0xbd36ad2a	-0.044598736
4	0x3b5227e8	0.0032067243
5	0x3d5385f3	0.051641416
6	0xbd88f87d	-0.066880204
7	0xbd488c12	-0.048961706
8	0x3c4319c0	0.011907995
9	0x3d267013	0.040634226
10	0x3d390bc4	0.045177236
11	0xbcf8be1e	-0.030364092
12	0x3d467590	0.04845196
13	0x3d302397	0.04300269
14	0xbd4f5296	-0.05061587
15	0x3cdfec73	0.027334427
16	0xbb93768b	-0.0045002154
17	0xbccbed9e	-0.024893578
18	0x3d12e26e	0.03586047
19	0xbcb011ac	-0.021492802
20	0xbccdb571	-0.025110932
21	0x3cddb7b8	0.027065143
22	0xbd0fc8ba	-0.035103537
23	0xbc32cf5b	-0.010913695
24	0x3d09f7d8	0.033683628
25	0xbd5f5ff5	-0.05453487
26	0x3cc567a7	0.024097277
27	0x3c850dd0	0.016241938
28	0xbca2d01c	-0.019874625
29	0x3c566612	0.013085859
30	0x3c9075e5	0.017634341
31	0x3c9a9e55	0.018874327

network.9.weight f4 [128, 288]
0	0x3d531b3a	0.051539637
1	0x3bee16fb	0.007265923
2	0x3d2bd576	0.04195162
3	0x3d1f7fe1	0.038940314
4	0xbd05b956	-0.032647453
5	0x3d595997	0.053063955
6	0x3d5cf03f	0.053940054
7	0x3cddda29	0.027081566
8	0x3af01f03	0.0018319789
9	0x3ca129df	0.019673286
10	0xbb27feab	-0.0025633972
11	0xbc9479c3	-0.018124467
12	0x3c4ddf7e	0.012565492
13	0xbd38d16a	-0.045121588
14	0x3d1d7117	0.03843793
15	0x3c84bcfa	0.016203392
16	0x3cdb1697	0.02674417
17	0xbc3d609a	-0.011558676
18	0xbd3f0c9c	-0.046642885
19	0xbd1395d3	-0.036031555
20	0x3cde73fb	0.027154913
21	0xbcc4c59a	-0.024020005
22	0xbd35a997	-0.044351187
23	0x3d4b6a7a	0.04966209
24	0x3d0f87de	0.035041682
25	0xbd7111c1	-0.058854822
26	0x3d2b3a6f	0.041803773
27	0x3bf48383	0.0074619665
28	0x3cd6175a	0.026134182
29	0x3d06d3fc	0.032917008
30	0xbd52cff8	-0.051467866
31	0x3d50af14	0.050948218
32	0x3d304857	0.04303774
33	0xbd519035	-0.051162917
34	0x3d642d3c	0.0557072
35	0x3d68c629	0.056829605
36	0xbcb2a72e	-0.021808233
37	0xba9d4a9d	-0.0012000386
38	0xbd2df178	-0.04246661
39	0x3c560fc2	0.01306528
40	0xbc34dda1	-0.011039169
41	0x3cdda534	0.027056314
42	0xbc1680d5	-0.009185989
43	0xbb094350	-0.0020944662
44	0xbc080302	-0.008301498
45	0x3d06d1cc	0.03291492
46	0x3c5169d9	0.012781584
47	0xbd7ac255	-0.061220486
48	0x3d97fc0e	0.074211225
49	0x3cb40674	0.021975733
50	0x3d795821	0.060875062
51	0xbd66ea15	-0.05637558
52	0x3bed52c8	0.0072425343
53	0xbb46f98c	-0.0030361144
54	0xbd33cbef	-0.043895658
55	0xbd111143	-0.035416853
56	0xbd3a52e2	-0.0454892
57	0x3d1b3d74	0.037900403
58	0x3d8b3f92	0.067992344
59	0x3d1170bf	0.035507914
60	0xbd53ba24	-0.05169119
61	0x3cfc0f25	0.03076894
62	0x3b3577df	0.0027689857
63	0xbd427ddd	-0.047483314
64	0x3d1e1f0a	0.03860382
65	0xbd0dde72	-0.03463597
66	0x3c986f55	0.018607775
67	0x3d7520f4	0.05984588
68	0xbc9f42f3	-0.019441104
69	0xbd2e4923	-0.042550217
70	0x3c84ce42	0.016211633
71	0x3d639df4	0.055570558
72	0x3cc4078f	0.023929385
73	0x3cac456e	0.0210292
74	0xbb8544cf	-0.0040670405
75	0x3d3b9436	0.04579564
76	0x3c9cb5a1	0.019129576
77	0x3d87ca2d	0.06630359
78	0xbd214365	-0.039370913
79	0x3c733f1d	0.01484659
80	0x3d25cd6c	0.04047911
81	0x3c915b5e	0.017743763
82	0x3d750cf6	0.059826814
83	0x3d46543a	0.04842017
84	0x3d0d1f89	0.034453902
85	0xbd566127	-0.052338745
86	0x3c3f9ba0	0.011694819
87	0xbd1b738d	-0.037951995
88	0x3ce45a7e	0.027875181
89	0x3aecaf39	0.0018057592
90	0xbc12a15d	-0.008949605
91	0xbd12b886	-0.035820507
92	0x3d67b691	0.056570593
93	0x3d4b73ea	0.04967109
94	0x3cb1ca3e	0.021702882
95	0xbd2fb475	-0.042896707
96	0xbcddc52f	-0.027071564
97	0xbd4a1d5a	-0.049344398
98	0x3c8a6372	0.016893122
99	0x3c8f35fe	0.0174818
100	0xbc3886c0	-0.011262596
101	0xbd2d178d	-0.042258788
102	0xbc3dc49a	-0.011582518
103	0xbd636974	-0.05552049
104	0xbd0590a5	-0.032608647
105	0xbd415f0a	-0.047209777
106	0x3c0bc245	0.008530204
107	0xbcbf665e	-0.023364242
108	0xbcde5075	-0.027137974
109	0x3c371c63	0.0111762015
110	0x3d06de72	0.032926984
111	0xbd4a067e	-0.049322598
112	0xbcd6e231	-0.026230903
113	0xbd788d1c	-0.060681447
114	0xbd51b916	-0.051201902
115	0x3d3dd83f	0.046348806
116	0x3d2373dc	0.039905414
117	0x3d09c15a	0.03363166
118	0xbd6f7fb0	-0.05847138
119	0x3d55785c	0.052116737
120	0x3b7864e9	0.0037901944
121	0xbccd60df	-0.025070606
122	0xbd2e2797	-0.042518225
123	0x3c8caad5	0.017171303
124	0xbcfcaabb	-0.03084313
125	0xbd242c9f	-0.040081616
126	0x3aef9a6a	0.0018280272
127	0xbd67ebe2	-0.05662144
128	0x3d2f468d	0.04279189
129	0x3d570777	0.052497353
130	0x3d6080ef	0.05481046
131	0xbd297c8c	-0.041378543
132	0xbd1788e8	-0.0369958
133	0x3d5ea61a	0.054357626
134	0xba8dd790	-0.0010821689
135	0xbd13587a	-0.03597305
136	0xbd4d1de7	-0.050077345
137	0x3d39181d	0.04518901
138	0xbd561fd9	-0.052276466
139	0x3a06e3b9	0.00051456277
140	0x3d79f822	0.061027654
141	0x3d3dd5bf	0.046346422
142	0xbcc33d6e	-0.023833003
143	0x3a30c236	0.0006742807
144	0x3a420e34	0.0007402629
145	0x3c545824	0.0129604675
146	0x3d01c1ae	0.031678848
147	0xbd67d582	-0.0566001
148	0x3d87dfc4	0.06634477
149	0x3b3d712f	0.0028906574
150	0x3d666cee	0.056256227
151	0xbc1f1f6b	-0.0097120805
152	0xbb952f78	-0.004552778
153	0x3d01c9f7	0.03168675
154	0x3d253367	0.040332224
155	0xbaf1d197	-0.0018449303
156	0xbcd8277e	-0.026386019
157	0xbd39d148	-0.0453656
158	0x3d4649c3	0.04841019
159	0xbb372c51	-0.0027949999
160	0xbd592989	-0.053018127
161	0x3c2ff42c	0.010739367
162	0x3d6900df	0.056885596
163	0xbd4a4b4d	-0.04938822
164	0xbca3f0d8	-0.020012304
165	0xbd1b2bb9	-0.037883494
166	0x3ca45e41	0.020064475
167	0xbcd66af5	-0.026174048
168	0xbd29a0e8	-0.041413218
169	0x3c472fb8	0.012157373
170	0x3d0ef7fb	0.03490446
171	0xbc25d655	-0.0101219015
172	0x3c347754	0.011014778
173	0x3d8203a9	0.06348354
174	0xbd1a4ce1	-0.037670974
175	0xbcb2286a	-0.021747787
176	0x3d3250c3	0.04353405
177	0xbd2264b9	-0.039646838
178	0x3cf6ff7c	0.030151121
179	0x3c4ad174	0.012379039
180	0xbc823056	-0.015892189
181	0xba3562ea	-0.00069193414
182	0x3d710357	0.058841076
183	0x3cef7c6b	0.029234132
184	0x3d161dcf	0.03664952
185	0x3d77c528	0.060490757
186	0x3ccf5be1	0.025312366
187	0x3b0a7ec5	0.002113269
188	0x3d5c5f46	0.053801797
189	0xbd607524	-0.054799214
190	0xbca64c59	-0.020300077
191	0xbd57afee	-0.052658014
192	0xbd7ad26b	-0.061235826
193	0x3ba43dcb	0.005012249
194	0xbd6133d6	-0.054981075
195	0xbd5af4b5	-0.053456027
196	0x3d4ef11a	0.0505229
197	0xbd44220b	-0.04788403
198	0xbc885b4d	-0.016645098
199	0xbd70788e	-0.05870872
200	0xbc89e68d	-0.016833568
201	0x3b6c85d2	0.0036090505
202	0x3c052f31	0.008128927
203	0xbcaecc68	-0.021337703
204	0x3d14b74c	0.036307618
205	0x3c08e43a	0.008355195
206	0xbbf9f3f4	-0.0076279584
207	0xbc1ca286	-0.009560233
208	0x3d11c92d	0.035592247
209	0x3cb5ef13	0.022208726
210	0xbd26bc9e	-0.040707223
211	0x3d4a41a1	0.049378995
212	0xbcede5a8	-0.029040173
213	0xbd07870f	-0.033087786
214	0xbd522169	-0.051301394
215	0xbd5b5b38	-0.05355379
216	0x3d07e97d	0.033181656
217	0xbcfae2e8	-0.030625775
218	0xbd29a137	-0.041413512
219	0x3d8fe166	0.07025413
220	0x3ccc655a	0.024950672
221	0xbacf8e31	-0.0015835223
222	0xbc6cf78b	-0.014463316
223	0xbc493b8a	-0.012282262
224	0x3d4635a3	0.048390996
225	0xbcc4f132	-0.024040792
226	0xbd196481	-0.037449364
227	0xbd040ae8	-0.032236964
228	0x3d94f9e2	0.07274224
229	0x3c1af592	0.009457963
230	0x3c9c8751	0.019107493
231	0xbc8a417e	-0.016876932
232	0x3c4e10ac	0.012577217
233	0xbd510cd5	-0.05103763
234	0x3d192212	0.037386008
235	0xbb4990c3	-0.003075645
236	0xbcb49943	-0.022045737
237	0x3d808bf3	0.06276693
238	0xbd136217	-0.035982218
239	0x3cb3f618	0.021967933
240	0xbd77ae64	-0.060469046
241	0x3d275892	0.04085595
242	0xbcbaecb4	-0.022817947
243	0x3d19c081	0.0375371
244	0x3d410ca8	0.04713121
245	0xbd3313dd	-0.043720115
246	0xbd4a5797	-0.04939994
247	0xbca764fe	-0.020433899
248	0x3d5f3fcc	0.0545042
249	0xbcfb9db4	-0.030714847
250	0xbc8a8337	-0.016908271
251	0xbd4d8f6f	-0.050185617
252	0xbcfffcfa	-0.031248558
253	0xbd639919	-0.055565927
254	0x3ca3f5da	0.020014692
255	0x3cf2f55e	0.029658016

network.9.bias f4 [128]
0	0x3b8ae87d	0.0042391405
1	0xbd240453	-0.040043186
2	0xbd0d6d00	-0.03452778
3	0x3cb259a2	0.021771256
4	0xbcd49c61	-0.025953474
5	0xbd61f0c5	-0.055161256
6	0x2bbd42a0	1.344775e-12
7	0xafc9ca29	-3.670533e-10
8	0x3baff7d7	0.005370121
9	0xbc9d64fa	-0.019213188
10	0xbd6db6ad	-0.05803554
11	0x3d09c617	0.03363618
12	0x3caf6a54	0.021413006
13	0x3cc8f0a2	0.024528805
14	0x3cdb53c9	0.02677335
15	0x3d406ed1	0.046980683
16	0x3d159acc	0.03652458
17	0xbcd122e8	-0.02552934
18	0x3c80ad4f	0.01570764
19	0xbcd7f047	-0.02635969
20	0x3d127061	0.035751704
21	0x3d0b7e31	0.034055892
22	0xaad102a5	-3.7127693e-13
23	0x3d7790b3	0.06044073
24	0x3d313c2e	0.043270282
25	0x3cb5af78	0.022178397
26	0x3cf4d68e	0.029887464
27	0x3d80f1d1	0.06296123
28	0xbd4b820d	-0.049684573
29	0x3ca8ac04	0.020589836
30	0xbc833940	-0.01601851
31	0xbccd0378	-0.025026068
32	0xbd5c78de	-0.053826205
33	0x3cf393ca	0.029733557
34	0x3d818179	0.06323523
35	0x2f8de6cd	2.5811744e-10
36	0x3be0728b	0.006849592
37	0xbc813052	-0.015770111
38	0x3d81acb3	0.06331768
39	0x3d800c8e	0.062523946
40	0x3cd20f1d	0.025641972
41	0xbc8b3a31	-0.016995521
42	0x3d97bbea	0.07408889
43	0x3d3c4e24	0.04597296
44	0x3caacf16	0.0208507
45	0x3d3377c5	0.043815393
46	0xbc273352	-0.010205107
47	0x3d52e6fb	0.05148981
48	0xbd06b958	-0.0328916
49	0x3abbb8db	0.0014322059
50	0x3cbf5127	0.023354126
51	0x3cda0001	0.02661133
52	0x3c05aea7	0.008159316
53	0xbca43f66	-0.020049762
54	0xbcf17024	-0.029472418
55	0x3da2fd3d	0.079584576
56	0xbd3057e5	-0.043052573
57	0x3d534642	0.051580675
58	0xbc29ed29	-0.010371485
59	0x3bff15f6	0.0077846004
60	0x3b8be9ac	0.004269799
61	0x3d63812c	0.05554311
62	0x3d036e5b	0.032087665
63	0x37ecd94c	2.8234579e-05
64	0xbc62d73a	-0.013845259
65	0xbb9ab3b5	-0.00472113
66	0x2d78d3f6	1.4144233e-11
67	0x3cb3df5f	0.021957098
68	0x3cc4ce34	0.024024107
69	0x3d8c73a1	0.06857992
70	0x3cd82c6a	0.026388366
71	0x3c78e95d	0.015192357
72	0x3d4e35eb	0.05034439
73	0x3c9f78c3	0.019466763
74	0xbd68dbe7	-0.05685034
75	0x3d265a8a	0.04061369
76	0xae26a6ed	-3.789229e-11
77	0xbb318567	-0.002708757
78	0xbcbe6634	-0.023242094
79	0xbd41c768	-0.04730931
80	0x3c301ef5	0.010749568
81	0xbd614d5e	-0.055005424
82	0xbd318c1f	-0.04334652
83	0x3c2bce32	0.0104861725
84	0x3bfb46d3	0.007668355
85	0x3d4bf4d8	0.049794048
86	0xbd491355	-0.049090702
87	0xbc6c738c	-0.014431845
88	0xac6739b1	-3.28591e-12
89	0xab5d72c1	-7.8674225e-13
90	0x3d1fd39d	0.03902017
91	0xbd25beba	-0.040465094
92	0x3d354010	0.044250548
93	0xbc546a1e	-0.012964753
94	0xbd41aa34	-0.04728146
95	0xbca20cd1	-0.019781502
96	0xbc2fb068	-0.010723211
97	0x3d88a9db	0.06673022
98	0xbaa0447e	-0.0012227444
99	0xbd4b9c83	-0.049709808
100	0xb5212550	-6.003147e-07
101	0x3d2e4f9a	0.042556383
102	0xbc02fe6d	-0.00799523
103	0x3d52dd02	0.0514803
104	0xbccf51b0	-0.025307506
105	0x3da8dca6	0.0824521
106	0x3b819d83	0.0039555444
107	0xbcfecb0a	-0.031102676
108	0xbd3235d2	-0.04350836
109	0x3c5ecd62	0.013598772
110	0x3bf2f38e	0.007414288
111	0x3d33eb24	0.04392542
112	0x3bc7f24c	0.006101882
113	0x3d01653e	0.031590693
114	0x3d83d196	0.0643646
115	0x3d775d0d	0.060391475
116	0x3d6a6965	0.05722942
117	0x3b8b29a2	0.0042469064
118	0xbd177a7d	-0.03698205
119	0x3d339aba	0.04384873
120	0xbd370829	-0.044685517
121	0xbc3f3886	-0.011671191
122	0x3d680335	0.056643683
123	0xbd7232b4	-0.059130386
124	0xbc00f796	-0.007871529
125	0xbb778528	-0.0037768576
126	0x3c912ce2	0.017721597
127	0xb9af4b49	-0.00033434693

network.11.weight f4 [128, 128]
0	0xba7faa6c	-0.0009752873
1	0x35a72e89	1.2456013e-06
2	0x3985c0de	0.00025511434
3	0xb1e15b80	-6.558764e-09
4	0xac93b65e	-4.198238e-12
5	0xb77b407f	-1.49757825e-05
6	0xae648606	-5.1960235e-11
7	0x33104568	3.3590737e-08
8	0xbaabd9f2	-0.0013111217
9	0x39d26d1d	0.00040135617
10	0xb6c53085	-5.876706e-06
11	0xb3e240af	-1.0535711e-07
12	0xb7fabff5	-2.989171e-05
13	0x39f28d57	0.00046263143
14	0xb2a0d5c3	-1.8723659e-08
15	0xb2efc7e9	-2.791417e-08
16	0x360d2edd	2.1037915e-06
17	0x351a719a	5.753478e-07
18	0x3689b096	4.1034755e-06
19	0xb1b296bb	-5.197618e-09
20	0xbb64430b	-0.003483
21	0x34944c10	2.762249e-07
22	0x327eee8b	1.4838984e-08
23	0xba2ba8ef	-0.00065483054
24	0xbb629051	-0.0034570883
25	0x382288a5	3.875107e-05
26	0xbc10ab1e	-0.00882986
27	0xb84bdd43	-4.8605038e-05
28	0x36a7fbff	5.006324e-06
29	0x35fb93b5	1.8743946e-06
30	0x39bf0c75	0.0003643964
31	0xaaae1707	-3.0924587e-13
32	0x3685b637	3.9849215e-06
33	0x3b93cf65	0.0045108073
34	0xb6adb73a	-5.177132e-06
35	0xaab146a7	-3.149054e-13
36	0x3a9c2c29	0.0011915016
37	0x3c640bdb	0.013918842
38	0x392b74c0	0.00016351324
39	0xb715716f	-8.907503e-06
40	0x3be88be2	0.0070967535
41	0x30b6485c	1.3262809e-09
42	0x3681d1aa	3.8689077e-06
43	0x372fbddf	1.0475021e-05
44	0xbbd7c24e	-0.006584442
45	0xbc169d74	-0.009192813
46	0x36cf571c	6.1792216e-06
47	0x3c3eac66	0.011637783
48	0x3b3769de	0.0027986686
49	0x3817563d	3.608152e-05
50	0x31a218cd	4.71764e-09
51	0xb5adafd1	-1.2940674e-06
52	0x338cb0c4	6.5514115e-08
53	0x2c9d20f5	4.4658673e-12
54	0xb487ba2c	-2.5281167e-07
55	0xb9e456b3	-0.00043552145
56	0xb9dc5770	-0.00042026816
57	0x3b1e9e8a	0.0024203383
58	0x3966c4c9	0.00022007817
59	0xbab4e1bf	-0.0013800188
60	0xbc0059b1	-0.007833884
61	0xbc5b13b6	-0.013371399
62	0x39fc5e62	0.00048135506
63	0xb32c4e02	-4.011782e-08
64	0xb5930afd	-1.0955551e-06
65	0xb9860689	-0.0002556334
66	0xaa320172	-1.5810077e-13
67	0xb8257372	-3.9446582e-05
68	0xb5f7a8d9	-1.8452075e-06
69	0x39823d1b	0.0002484106
70	0xbb21b392	-0.0024673683
71	0x2e00f615	2.9322395e-11
72	0x3807041c	3.2190335e-05
73	0x2d35dd1e	1.0337757e-11
74	0x3834c38e	4.309747e-05
75	0xb936d6ee	-0.0001743694
76	0x2fad523d	3.152695e-10
77	0x332c7479	4.0152802e-08
78	0xb7b14ac8	-2.1134867e-05
79	0x3a9ceae9	0.0011971864
80	0x390d4722	0.00013473307
81	0xbaaffd0b	-0.0013426853
82	0x3b914a31	0.004433893
83	0x39e217cd	0.00043123812
84	0xbaf46988	-0.0018647173
85	0x3b11980f	0.0022215878
86	0xbc96b451	-0.018396528
87	0xab917a40	-1.0336801e-12
88	0xad205801	-9.114488e-12
89	0x2f968f77	2.738678e-10
90	0x3c1580be	0.009124933
91	0x3a13f3f2	0.00056439557
92	0xb8814a1e	-6.165005e-05
93	0xbc0c4759	-0.0085619325
94	0x351fc112	5.951307e-07
95	0xb00868aa	-4.962525e-10
96	0xbc4e13d6	-0.012577971
97	0xb99f9aeb	-0.00030442266
98	0xa92602a8	-3.686171e-14
99	0x3a05af04	0.0005099627
100	0xaf929c89	-2.666847e-10
101	0x3ae4dcd7	0.0017460835
102	0x307c078f	9.168781e-10
103	0xbaa4016b	-0.001251263
104	0xb850b9ae	-4.9763992e-05
105	0x3a0173ae	0.0004938197
106	0x38284053	4.0114228e-05
107	0x3924ea7f	0.00015727615
108	0x3ba5e511	0.0050627072
109	0x3be07f2c	0.0068510976
110	0xba85cf83	-0.0010208938
111	0xb8f19f25	-0.000115214185
112	0xba8ad164	-0.0010590968
113	0x3b6e0a59	0.0036322086
114	0xbc1d320e	-0.0095944535
115	0xbb54aed9	-0.003245285
116	0x3c37141a	0.011174226
117	0xb98921b5	-0.0002615579
118	0x39c17f68	0.00036906754
119	0x398bb706	0.0002664851
120	0xb98f60f5	-0.00027347324
121	0x36c7ca07	5.9541812e-06
122	0x3b02f3eb	0.0019981812
123	0xb982d627	-0.00024955088
124	0x3aaf7eef	0.001338927
125	0x29b63149	8.090973e-14
126	0xb307b9e8	-3.1601218e-08
127	0x30bb306a	1.3619801e-09
128	0x3d139b2d	0.03603666
129	0xbd6513f2	-0.055927224
130	0xbd026539	-0.031834815
131	0x3daadc46	0.08342795
132	0xbb4a366c	-0.0030855192
133	0x3c1ed62b	0.009694616
134	0x2ce61a39	6.5399045e-12
135	0x2ed85cc0	9.8390185e-11
136	0x3d045fda	0.032317974
137	0x3be19949	0.006884728
138	0x3d039b4d	0.03213053
139	0xbd05bfdd	-0.03265368
140	0xbc0c5a95	-0.008566518
141	0x3cf62d5e	0.03005093
142	0xb0c95145	-1.4647773e-09
143	0x39139711	0.00014075289
144	0x3c9ae9fa	0.018910397
145	0xbd6060b7	-0.054779734
146	0x3daa21cd	0.08307228
147	0xbd56b171	-0.052415315
148	0x3d1cc898	0.03827724
149	0x3caac1fd	0.020844454
150	0x2d42e104	1.1077587e-11
151	0x3cf757eb	0.03019329
152	0xbc7b0a38	-0.015322261
153	0x3c924e40	0.017859578
154	0x3daa9df0	0.083309054
155	0xbce04ea9	-0.027381258
156	0x3d070339	0.032962058
157	0xbe0dc2f6	-0.13843903
158	0x39b69235	0.00034822678
159	0x3b5ebc2d	0.0033986673
160	0xbd299cd1	-0.041409317
161	0x3d800b49	0.062521525
162	0x3da6ba8b	0.08141049
163	0x32946030	1.7273209e-08
164	0x3c9eab30	0.019368738
165	0xbc96d2ff	-0.018411158
166	0xbd042adc	-0.032267436
167	0xbbba9900	-0.0056945086
168	0x3d05981f	0.032615777
169	0x3c16b93b	0.009199436
170	0xbd84bca4	-0.06481293
171	0x3cd80a52	0.026372109
172	0xbd915e92	-0.07098116
173	0xbac72397	-0.0015193102
174	0xbbaa5518	-0.0051981322
175	0xbdaaaeb5	-0.08334104
176	0xbda515ac	-0.08060774
177	0xbd7c8afa	-0.061655976
178	0xbc1282d7	-0.008942327
179	0xbdb9c4f8	-0.09070772
180	0x2e98f32d	6.9553564e-11
181	0xb13bd193	-2.733121e-09
182	0xbce15100	-0.027504444
183	0xbd11ade9	-0.035566244
184	0x3d702f4e	0.058638863
185	0x3c661fd5	0.014045675
186	0xbd0054fc	-0.031331047
187	0xbd04e669	-0.0324463
188	0x3d471948	0.048608094
189	0xbdaa3677	-0.083111696
190	0x3d710e74	0.058851674
191	0x3cb32ae8	0.021871045
192	0xb5b5d0bc	-1.3546301e-06
193	0x3cfa8766	0.030582141
194	0xad8171f1	-1.4716202e-11
195	0xbdad3698	-0.084576786
196	0x3688c85e	4.0764417e-06
197	0xbaddb029	-0.0016913462
198	0x3da44411	0.08020795
199	0xafcc2741	-3.7135275e-10
200	0x3d973c1b	0.07384511
201	0x264bff05	7.077539e-16
202	0x3d83eea0	0.064419985
203	0x3d099e96	0.033598505
204	0xacd910b8	-6.169367e-12
205	0xbc86aa96	-0.016438764
206	0xbd2833c9	-0.04106501
207	0x3db8a524	0.09015873
208	0x3d9303cf	0.07178461
209	0xbbd4afb0	-0.00649067
210	0xbd932510	-0.071848035
211	0xbd1b26af	-0.03787869
212	0x3d9f9215	0.07791535
213	0xbd0e2d66	-0.034711264
214	0x3d5f5499	0.054524038
215	0x3c6918ec	0.014227133
216	0x2dfd1540	2.8772207e-11
217	0xb26625fb	-1.3396398e-08
218	0xbd8c2622	-0.06843211
219	0xbd72f776	-0.05931803
220	0xbdc40e1e	-0.09573005
221	0xbd1d216d	-0.038361955
222	0xbda172f3	-0.07883253
223	0xbb782473	-0.0037863522
224	0x3d8d72ba	0.06906648
225	0xbd8fb78a	-0.07017429
226	0x3de162cf	0.11005174
227	0xbd561e3f	-0.05227494
228	0x393986d2	0.000176932
229	0x3d3a040a	0.04541401
230	0x3c78ddaa	0.015189568
231	0x3d7b3bf9	0.06133649
232	0xbca91125	-0.020638058
233	0xbd7d4d1a	-0.061841108
234	0x3d8bff9c	0.06835863
235	0x3c9c3f5a	0.019073177
236	0x3cdb4897	0.026768012
237	0x3c8a2cff	0.016867159
238	0xbd8f228b	-0.069890104
239	0xbdadce25	-0.084865846
240	0x3d791c45	0.060817976
241	0x3cd3c379	0.025850045
242	0xbda9cbbd	-0.08290813
243	0xbd9aaa0e	-0.075519666
244	0x3b04b4ce	0.002024937
245	0xbd100076	-0.03515669
246	0xbd77df13	-0.060515475
247	0xbd0f1672	-0.034933515
248	0x3cbc1e67	0.022963716
249	0xbc00f59e	-0.00787106
250	0x3d2ebf3b	0.04266284
251	0xbdc62512	-0.09675039
252	0xbd401625	-0.04689612
253	0xb29b1335	-1.805311e-08
254	0x3238ad9e	1.0749686e-08
255	0x33931376	6.848761e-08

network.11.bias f4 [128]
0	0xbb974216	-0.0046160324
1	0xbd2c478c	-0.04206042
2	0x3cf8f73e	0.030391332
3	0xbbcb0159	-0.006195229
4	0x3c0507d5	0.008119543
5	0x3d920196	0.07129209
6	0x3d37b9c1	0.044854883
7	0xbd1c33a1	-0.038135175
8	0xbb176c45	-0.0023105305
9	0xaf70e08a	-2.1907645e-10
10	0xbcb5d79a	-0.022197533
11	0xb0486cb6	-7.2914064e-10
12	0x3d6530f9	0.055954907
13	0x3daf987c	0.08574006
14	0xbd39e170	-0.04538101
15	0x3c631175	0.013859143
16	0x3d36cdce	0.044629864
17	0x3c5e9034	0.013584185
18	0x3cb282ec	0.021790944
19	0xb9cda14b	-0.0003922082
20	0x3c26fc63	0.01019201
21	0x3ccd0bbf	0.025030015
22	0xbd8325ed	-0.06403718
23	0xb92331a5	-0.00015563385
24	0x3d8b2f9e	0.06796192
25	0xbd2fbfb0	-0.042907417
26	0x3c163ffa	0.009170527
27	0x3d32e0e9	0.043671522
28	0x3d1614ba	0.03664086
29	0xbd8d7bba	-0.069083646
30	0x3d9474c7	0.07248836
31	0xbd815993	-0.06315913
32	0x3d4f1e33	0.05056591
33	0xbd83f922	-0.06444003
34	0xbd26b3a5	-0.040698666
35	0xbc95abbe	-0.01827037
36	0xbdafc49d	-0.08582423
37	0xb8accbe6	-8.239578e-05
38	0x3d8699d1	0.06572307
39	0x3d274be8	0.040843874
40	0x3c6b421e	0.014359025
41	0x3dbfcfbc	0.09365794
42	0xbd20348b	-0.03911261
43	0x3dbf742f	0.09348332
44	0x3b2de471	0.0026533867
45	0x3d5c466a	0.05377809
46	0x3cb54580	0.022127867
47	0xb2af3c8f	-2.040022e-08
48	0xbc8001db	-0.015625885
49	0xb455da19	-1.9916514e-07
50	0xbca6cfed	-0.020362819
51	0xb81c9a65	-3.733709e-05
52	0x3cbfb020	0.023399413
53	0xbd71f6e7	-0.059073355
54	0x3de5bef9	0.11218066
55	0xbd9006b7	-0.07032531
56	0xb9c30efe	-0.00037204468
57	0x3d6c0229	0.057619248
58	0xbd0ee991	-0.034890715
59	0xbd358b2b	-0.044322174
60	0x3c7b6a76	0.0153452065
61	0x3dc598a4	0.096482545
62	0xafa316ef	-2.9665823e-10
63	0xbd59c9aa	-0.053170837
64	0x3d927c28	0.07152587
65	0xbc0d503c	-0.008625086
66	0xbd202e59	-0.0391067
67	0xbd68cc8e	-0.056835704
68	0xbd4a260c	-0.04935269
69	0xaa61daa5	-2.0059872e-13
70	0x3d9aecfb	0.07564732
71	0xbcbb5b9e	-0.022870835
72	0x3d906fc4	0.070525676
73	0xbd50af6e	-0.050948553
74	0x3d920c99	0.07131309
75	0xb2bd670f	-2.2049361e-08
76	0xbd2b09f8	-0.041757554
77	0xbda01858	-0.07817143
78	0xb64fa83e	-3.0943334e-06
79	0xbd50fb88	-0.05102113
80	0x3c994026	0.018707346
81	0xbd747fd7	-0.05969223
82	0x3c7cac15	0.015421887
83	0xb80b3b5e	-3.3195472e-05
84	0xacdd2179	-6.284914e-12
85	0x3d20b156	0.03923162
86	0x3cb91903	0.022594934
87	0x3c258981	0.010103584
88	0xbd772062	-0.060333617
89	0x3db6f4d1	0.08933414
90	0xbd8139a2	-0.06309821
91	0xbd9d6844	-0.07685903
92	0xba76e41d	-0.0009418147
93	0xbd85634b	-0.06513079
94	0xbd80cabc	-0.062886685
95	0xbd938b99	-0.072043605
96	0x3d8753c0	0.06607771
97	0xbd853257	-0.06503742
98	0xbd648d34	-0.055798724
99	0x3d557193	0.052110266
100	0x3cb424d7	0.021990223
101	0xbd7bd1d0	-0.06147939
102	0x3d9c22ba	0.07623811
103	0xbce02259	-0.027360128
104	0xacd074a1	-5.924664e-12
105	0x3bb13379	0.0054077473
106	0xbccd022a	-0.025025446
107	0x3c998fe9	0.01874538
108	0xbd2e590f	-0.0425654
109	0xbdaa8ab3	-0.08327236
110	0xbd612402	-0.05496598
111	0xbceebcb0	-0.029142708
112	0xbce3bb0c	-0.027799152
113	0x3c63c440	0.01390177
114	0x3cd4a2e2	0.025956575
115	0x3d8c4c68	0.06850511
116	0xb79a64f3	-1.8405239e-05
117	0xbd90dfd7	-0.07073944
118	0xbc498141	-0.012298883
119	0x3d73b9c6	0.05950334
120	0x3c2711f3	0.0101971505
121	0x3d0141ed	0.031557012
122	0x3d61d04e	0.055130295
123	0xbb1b2f26	-0.0023679226
124	0x3c5ba1ff	0.013405322
125	0x3be321fd	0.006931542
126	0xbc4c9ec9	-0.012489029
127	0xbdb4a719	-0.08820934

network.13.weight f4 [12, 128]
0	0xb765364b	-1.3662105e-05
1	0xbd85082d	-0.064957
2	0x3dba8e6c	0.09109196
3	0x3d2edcc7	0.04269102
4	0xbd3d1f96	-0.0461727
5	0x3d7247de	0.05915057
6	0xbdda6863	-0.106644414
7	0xbd62b230	-0.055345714
8	0x3cce4fd5	0.025184551
9	0x2d89d157	1.5668062e-11
10	0xbcf7ab31	-0.030232998
11	0xac84776f	-3.7649254e-12
12	0x3ce1d8fe	0.02756929
13	0x3c1fa0d1	0.009742931
14	0xbca68eed	-0.020331824
15	0xbd21e023	-0.039520394
16	0xbbc3ba2f	-0.0059731225
17	0x3d955bff	0.072929375
18	0x3d6717bd	0.056419123
19	0xb9f51dc1	-0.0004675221
20	0xbd41039c	-0.047122583
21	0x3dc9ce01	0.09853745
22	0x3da0e695	0.0785648
23	0xb99fcb32	-0.00030478236
24	0xbc15846e	-0.009125812
25	0x3d5513c0	0.05202079
26	0x34014b21	1.2041393e-07
27	0xbdbf05e7	-0.09327298
28	0xbd80682f	-0.062698714
29	0xbd2cdc08	-0.042202026
30	0xbd0935ee	-0.033498697
31	0x3cb801cf	0.0224618
32	0x3c4e83c4	0.012604658
33	0xbd9f5e60	-0.077816725
34	0x3da93e69	0.08263857
35	0x3c492972	0.012277948
36	0x3d752ada	0.05985532
37	0xb7427fab	-1.1593026e-05
38	0xbd1c0e4a	-0.038099565
39	0x3d94e5e0	0.07270408
40	0xbd888c66	-0.06667404
41	0x3d874ed8	0.06606835
42	0xbd0fa03a	-0.035064913
43	0xbd89f5ee	-0.067363605
44	0x3d9335fd	0.07188032
45	0xbdae8f9f	-0.08523487
46	0xb9e087bd	-0.00042825742
47	0x28875ac4	1.5027374e-14
48	0x3d89f49b	0.06736108
49	0x3209ebc9	8.028061e-09
50	0xbc12aecd	-0.008952809
51	0x39b982a7	0.00035383293
52	0x3dbf9f0b	0.09356507
53	0xba2b4b1c	-0.00065343245
54	0xbd92f14d	-0.07174931
55	0x3d2db36a	0.04240743
56	0x3758d239	1.292355e-05
57	0x3d8d6597	0.06904142
58	0x3b0621f7	0.0020467022
59	0x3da58377	0.080817156
60	0xbd99e8d7	-0.07515114
61	0xbd902340	-0.070379734
62	0xa9ff4870	-1.1336841e-13
63	0x3c507ee6	0.012725567
64	0xbdf907d6	-0.12159698
65	0xb743fd64	-1.1681903e-05
66	0x3bb0cc26	0.00539543
67	0x3d1c0653	0.03809197
68	0x3d1e0f0c	0.03858857
69	0x2d8b986a	1.5870156e-11
70	0xbd8019df	-0.062549345
71	0x3da5dc70	0.08098686
72	0x3c84abfd	0.016195292
73	0x3d6a8316	0.05725392
74	0xbd8ddc2b	-0.06926759
75	0x2db63adb	2.0717142e-11
76	0xbd8118a6	-0.063035294
77	0x3dc28571	0.09498108
78	0xb1ad9df1	-5.0529185e-09
79	0x3d8488c3	0.06471398
80	0xbc020b19	-0.007937216
81	0xbd92bca0	-0.071648836
82	0x3d277ded	0.040891577
83	0xafdec2d0	-4.0519987e-10
84	0x2b0558a9	4.737413e-13
85	0x3db99d3e	0.09063195
86	0x3d81cb71	0.063376315
87	0xbc6786e6	-0.014131283
88	0xbd8cfcab	-0.0688413
89	0xb9f3805e	-0.00046444213
90	0x3d2e193a	0.042504527
91	0x3d579483	0.052631866
92	0xbad74f95	-0.0016426916
93	0xbaeec743	-0.0018217344
94	0xbd65b5ae	-0.056081466
95	0xbbb497ff	-0.0055112834
96	0x3d075958	0.03304419
97	0x3b8d1cd2	0.004306414
98	0xbd4a2356	-0.049350105
99	0xbd914184	-0.07092574
100	0x3d7bc78f	0.06146961
101	0xbc9ba5f8	-0.019000039
102	0xbd9a961e	-0.07548164
103	0x3c9e1a99	0.019299792
104	0x328433e6	1.5390423e-08
105	0xb638ab04	-2.751768e-06
106	0xbcbe1fc8	-0.023208514
107	0xbba46e3d	-0.0050180242
108	0xbdead8d7	-0.1146714
109	0xbd3b0a9b	-0.04566441
110	0x3cdd2dab	0.026999315
111	0xbdacd086	-0.0843821
112	0xbca7f749	-0.020503657
113	0x3dc0eb76	0.094199106
114	0x3d690974	0.05689378
115	0xbda9927e	-0.08279894
116	0xae4608ce	-4.5027808e-11
117	0xbd087fbd	-0.033324946
118	0x3db95e26	0.090511605
119	0x3da43093	0.08017077
120	0x3d61ef2b	0.05515973
121	0x3d9ad473	0.07560053
122	0xbd0326c9	-0.03201941
123	0xba039d37	-0.000502068
124	0x3bb6da73	0.0055802404
125	0xbc3dfc66	-0.011595821
126	0xbc7206a0	-0.014772087
127	0xbd4314c4	-0.047627226
128	0x36a0f67a	4.7970652e-06
129	0xbd117659	-0.035513256
130	0xbbb0df70	-0.0053977296
131	0xbd87c299	-0.066289134
132	0x3db4f5d2	0.08835949
133	0x3d3bac11	0.045818392
134	0x3d072b45	0.03300025
135	0x3d8e8e1c	0.06960699
136	0x3aabb573	0.0013100341
137	0xa9de571c	-9.8738915e-14
138	0xba1e548b	-0.00060398196
139	0xad2c5e5d	-9.798021e-12
140	0xbd8825d9	-0.06647844
141	0xbc700bd6	-0.014651259
142	0x3d29af73	0.041427087
143	0x3d6b5bbd	0.057460535
144	0x3d85224a	0.06500681
145	0xbcb96efe	-0.022635933
146	0x3d01af98	0.0316616
147	0xbaa16524	-0.0012313467
148	0x3d9549a4	0.072894365
149	0xbc01576c	-0.007894378
150	0x3d80b096	0.06283681
151	0xb85e9e84	-5.3076554e-05
152	0xbd80a858	-0.06282109
153	0xbdcb9f98	-0.099425495
154	0x36e6deda	6.8804775e-06
155	0xbdbcbd6e	-0.09215818
156	0x3cf44f4c	0.029822968
157	0xbd29b9df	-0.041437026
158	0x3d412a47	0.04715946
159	0x3c5fdeed	0.0136639895
160	0xbc3c61e4	-0.011497948
161	0xbbe8fb75	-0.007110054
162	0xbca9da86	-0.020734083
163	0xbcef6901	-0.029224874
164	0x3d84811a	0.06469937
165	0xb57cecf4	-9.422213e-07
166	0xbd01d446	-0.03169658
167	0xbd533e09	-0.051572833
168	0xbc94dd2d	-0.018171871
169	0x3d8eeb3e	0.06978463
170	0xbdc3404e	-0.095337495
171	0xbdb3a410	-0.08771527
172	0xbd8f5e48	-0.070004046
173	0x3c90a079	0.017654644
174	0xb9912e42	-0.0002769102
175	0x2e4cd8ee	4.6576902e-11
176	0x3d6eb5d9	0.058278892
177	0xb07936f7	-9.066378e-10
178	0x343bbfa9	1.7485458e-07
179	0x37964d52	1.7917399e-05
180	0x3d23b047	0.039963033
181	0x3c3035c9	0.010755011
182	0x3bc43699	0.005987954
183	0x3d1d9880	0.038475513
184	0x3720e64e	9.590365e-06
185	0xbd4b5b8f	-0.049647864
186	0x39925109	0.00027907666
187	0xbd61fd7d	-0.055173386
188	0x3d9332cf	0.07187425
189	0x3d54fcc6	0.051998876
190	0xabdfb40d	-1.5895077e-12
191	0xbd32fb45	-0.04369666
192	0xbd885ec4	-0.066587
193	0xb9b8d46e	-0.00035253487
194	0x3aba8284	0.001422957
195	0xbd817754	-0.06321588
196	0xbd5742b9	-0.052553866
197	0xa904e342	-2.9507003e-14
198	0xbdc18e89	-0.094510145
199	0xbd99f45b	-0.0751731
200	0xbd42b93e	-0.047539942
201	0x3d42b4e2	0.047535785
202	0xbd63c54d	-0.055608083
203	0x2d63f49d	1.2957771e-11
204	0xbd2ac8b9	-0.04169533
205	0x3d12eea8	0.03587213
206	0xb33c2c03	-4.381219e-08
207	0x3c6463e5	0.013939832
208	0xbd104663	-0.035223376
209	0xbd4caeec	-0.049971506
210	0x3d91986c	0.0710915
211	0x3271843a	1.4058111e-08
212	0x2c7c5c42	3.5862567e-12
213	0xbc63e78a	-0.013910184
214	0x3cbe1f79	0.023208367
215	0xbd4cd7fd	-0.05001067
216	0xbc81cc9e	-0.01584464
217	0xbc934a90	-0.01797989
218	0x3a6c6c07	0.0009018783
219	0xbd3f7210	-0.046739638
220	0x3a117468	0.0005548657
221	0x3d3a76ef	0.04552358
222	0x3d85f5a9	0.065409966
223	0xbdc5bd4a	-0.09655245
224	0x3dea14d3	0.11429753
225	0x3d51dcaa	0.051235832
226	0xbd677e5a	-0.056516983
227	0x3da172c1	0.07883216
228	0x3a8389a3	0.0010035526
229	0x3cc07268	0.023492053
230	0xbd712f12	-0.05888278
231	0x3cdd4499	0.027010249
232	0x321a78c9	8.991443e-09
233	0xb8bcbe4c	-8.999984e-05
234	0x3d2924fa	0.04129503
235	0xb62b3c00	-2.551591e-06
236	0x3ca6ab68	0.020345405
237	0xbd56438f	-0.052310523
238	0x3d0e6704	0.034766212
239	0xbd8089ee	-0.06276308
240	0xba9c639a	-0.0011931539
241	0x3da9678e	0.082717046
242	0x3d40b0de	0.047043674
243	0x3d1ce990	0.03830868
244	0x377165b7	1.4388402e-05
245	0x3d4e9e2f	0.050443824
246	0x3d90a937	0.07063525
247	0x3d851580	0.064982414
248	0xbd437d5c	-0.047726974
249	0x3ced948b	0.029001495
250	0xbcc7c9c5	-0.024388203
251	0x390ff240	0.00013727788
252	0x3d0330ae	0.032028846
253	0xbd8d61d6	-0.06903426
254	0xbd802f1e	-0.06258987
255	0xbd13340e	-0.035938315

network.13.bias f4 [12]
0	0x3c6392af	0.013889953
1	0xbd77f527	-0.06053653
2	0xbcef28d2	-0.02919427
3	0x3d9fed84	0.078089744
4	0x3d67c0d9	0.0565804
5	0xbd445a86	-0.047937892
6	0xbd1a52cf	-0.03767663
7	0xbd1a029c	-0.037600145
8	0xbc8a3391	-0.016870292
9	0x3c4c1571	0.012456284
10	0xbba17997	-0.0049278247
11	0x3c0432bc	0.008068737
