plankton-cnn-base-final.pt (torch, 266433 bytes, 12 tensors)

network.0.weight f4 [8, 3, 4, 4]
00000000: edd2 923c 780b 10bd a1d7 1b3e f118 833c
00000010: 91b8 8cbd edd1 0b3e b801 8c3d 4c65 cebd
00000020: 0514 873d 88e8 eebc cc2a a0bd e18d 1d3b
00000030: d7e6 223d f0b7 113e 400c 973d 7415 a8bc
00000040: fb38 283e b883 fc3d b02c e6bd 977e 373d
00000050: 5562 df3c ca03 b3bd 8f03 bc3d 3a71 48bd
00000060: 76e5 92bc 7a32 2abd 8261 033e 9880 8f3d
00000070: 79d7 bf3d 0063 2d3e e167 b6bd deea 063e
00000080: 05c0 b33d 6c43 d1bd 7949 84b9 94fa 263e
00000090: 584b 043e bcac 96ba 567b 293e 983f cc3d
000000a0: 2c4a 15bd 2850 2a3c e8e5 693d 3601 ae3c
000000b0: bcff 8bbb 64c9 b5bd 6a3e 053e 8109 e5bd
000000c0: b3cf 343e 98a4 203e d505 023e 0ad6 9dbc
000000d0: 75f3 39bd 76a2 c93c 5a3b 493e de32 743c
000000e0: ec5d 3a3e 3c6b e1bc b48f 443e a877 31bd
000000f0: 00c9 eb3d 46bd f73d 300e eb3c 68b6 52bc
00000100: a999 003e c469 e13d e9bf e03d 83b9 54bd
00000110: 6c84 3abd 33f3 ab3d 5681 a13d 899c 463e
00000120: e6a9 563e d37a 2a3e 3a3d f43d 5a36 983b
00000130: 827b 74bd ecda 063d 9893 8a3d 0b55 2e3e
00000140: 985f 343e a785 5d3e 6d5d 54bd 4283 5c3e
00000150: 2e55 633e 478e 0e3e 903a 613d 6e1f 193d
00000160: 146a ee3d d2d8 ec3d 6784 063e 101e 143d
00000170: ba22 543e b2ed c93d 6100 623e 4b23 6a3e
00000180: abcc 043e 9488 823c 6b46 1d3e 1b8a a53d
00000190: 0644 183e 6df9 183e d8a7 0cbc 8ce7 babd
000001a0: c9f3 93bc e54f 923d ada2 84bd 7be0 463d
000001b0: ac5a 54bd 4652 afbd bc0d 73bc a27b c6bd
000001c0: e2bc 643d 3952 af3d 34fb b43d f96f 323e
000001d0: 40d7 37bc 29dd 53bd 1c36 2abd 39fb 1e3e
000001e0: 780c d3bd 583c 7a3d 4700 c6bc 6f3d 1c3e
000001f0: 3da2 193e 18d3 ce3c b1f2 8fbd 9bdc 65bd
00000200: b65c 3f3e d52b ae3d f560 953d 5e45 093e
00000210: 53b3 383e 4b9f 58bd d9fe 1f3e 779e 313e
00000220: 49a3 ea3c 9637 bc3b 9969 0c3e bbdb d53d
00000230: 2c7b c63d cdd3 bdbd d8e9 8e3c bb8b 943d
00000240: d5a3 993d 5863 f5bd b97e fdbd f1f8 f2bd
00000250: 3c19 913c 51d0 95bd 27ae 043d 539f cbbc
00000260: 3c5e 01be 268e cbbc 3610 eabd d377 03be
00000270: 3f7a 4e3d 85cd aa3c 29a7 87bd eb2e b4bd
00000280: 0960 273d 809c c43c 6fd8 df3d 100d ab3d
00000290: ca36 8a3c 4455 e03d ea13 5c3d 72af d4bd
000002a0: 5018 133d 798e c3bb 05d3 83bc 8a21 fb3d
000002b0: 6d0c 5dbd 972a 02be 3625 b43d 9299 863d
000002c0: b69f d8bd 19ae dd3d b9f6 4a3c 6c32 113e
000002d0: 3b21 bebc 277e 913d 798e 6cbd 3a22 093e
000002e0: 2de8 833d f02f 33bd 07f3 f9bd 646f 933a
000002f0: 65bb 10be ae82 313d b8ab b63d cdde 9cbd
00000300: b4c8 a1bc 2c24 aa3d 5883 e13d e2e8 353e
00000310: 48d5 3d3e 3c48 c2bd dedd c53d 0b87 183e
00000320: afc3 1d3e c51e ed3d ac04 b5bd 89f6 93bd
00000330: 4345 9ebd 428c e53d e53e c83d 07ef b43d
00000340: 9de3 d13d 1dec 3b3e 33d1 3b3e a172 0f3d
00000350: 4295 823c c3a4 ff3d 6307 813c fc4b ab3c
00000360: bc43 c53d d0b6 f93d c432 1e3e 6de5 8abc
00000370: 9a8d 553d 4ab4 e7bb 70ee cb3c 7634 ce3d
00000380: b8cb d83c 3a21 683d 70b3 133e 4510 203e
00000390: 80e3 a63c 8724 90bd 621d 083e 3139 c23c
000003a0: 1f0c acbd 9fb7 82bc 098c cb3d d7da 463e
000003b0: cfae 94bd a55c b9bc 0aa5 afbc 475e 063e
000003c0: c0ce b0bc 2e07 5b3d bd33 57bd 13a7 44bd
000003d0: f04d d83a 4721 df3d 9d78 05be 736b 013e
000003e0: 283c e63d 9d75 f6bd 8517 13bc 36c6 a7bd
000003f0: 1e29 08be db17 6e3d 1077 4fbd 09df d6bd
0.017922843 -0.035167187 0.15218975 0.016003104 -0.06871141 0.13654299 0.06836265 -0.100779146
0.06595615 -0.029163614 -0.07820663 0.0024040865 0.039770927 0.14230323 0.073753834 -0.020518042
0.16427986 0.12329811 -0.11238992 0.04479846 0.027268568 -0.08740957 0.09180366 -0.048936106
-0.017931681 -0.041552044 0.12830165 0.07006949 0.0936727 0.16932297 -0.08906532 0.13175532
0.08776859 -0.10217938 -0.00025231743 0.16306525 0.12919366 -0.0011495571 0.16550955 0.09973067
-0.03644769 0.010395087 0.05710402 0.021240812 -0.0042724293 -0.08876303 0.1301209 -0.11183453
0.17657356 0.15687788 0.12697537 -0.0192671 -0.045398194 0.0246136 0.19651547 0.014904706
0.18199891 -0.027516954 0.19195443 -0.043327004 0.11512947 0.12096648 0.028693289 -0.012860872
0.12558617 0.11006501 0.10974104 -0.05193473 -0.045536444 0.08395996 0.07885997 0.19395651
0.20963249 0.16648416 0.119257405 0.004645151 -0.0596881 0.032923624 0.067664325 0.17024629
0.17614591 0.21633016 -0.05184691 0.21534446 0.22200462 0.13921462 0.05498749 0.03738349
0.116413265 0.11564793 0.13136445 0.036161482 0.20716372 0.0985979 0.22070457 0.22865026
0.129687 0.015934266 0.15358894 0.08082982 0.14869699 0.14938898 -0.008584939 -0.09126195
-0.018060582 0.07144145 -0.064763404 0.048553925 -0.051844284 -0.08560614 -0.0148348175 -0.0969155
0.055844195 0.085606046 0.08836976 0.17425527 -0.011220753 -0.051724587 -0.04155551 0.15525521
-0.103051126 0.061092705 -0.024170054 0.1525781 0.15003295 0.025247142 -0.070287116 -0.05611859
0.1868771 0.08504454 0.07293884 0.13405368 0.18037157 -0.05288629 0.1562456 0.17345606
0.028642314 0.005743931 0.13712157 0.10442301 0.09691462 -0.092689134 0.01744549 0.07253214
0.075019516 -0.11981839 -0.12377686 -0.11863888 0.017712228 -0.07315124 0.032392647 -0.024856245
-0.12633604 -0.024848055 -0.11428873 -0.12838678 0.05040955 0.020849952 -0.0662368 -0.087980114
0.04086307 0.024000406 0.10929953 0.08352101 0.016871829 0.10953763 0.05372993 -0.10385026
0.035911858 -0.005967912 -0.016091833 0.122622564 -0.05396693 -0.12711559 0.0879616 0.0657226
-0.105773374 0.10824222 0.012387925 0.1417939 -0.023209205 0.0710414 -0.05775306 0.13391963
0.064407684 -0.04374689 -0.12204557 0.0011248407 -0.14133985 0.043337516 0.089194715 -0.076596834
-0.019749023 0.083076805 0.1101138 0.17764619 0.18538392 -0.09486434 0.096614584 0.14895265
0.15406679 0.115781344 -0.08838782 -0.07224757 -0.077280544 0.11208393 0.09777621 0.08834653
0.10248492 0.18351789 0.18341522 0.035021428 0.015940312 0.12482598 0.015750593 0.020910256
0.0963206 0.12193072 0.15449053 -0.016955102 0.052136995 -0.0070710527 0.02489397 0.100686
0.026464328 0.056672312 0.14423919 0.15631206 0.020372152 -0.07038217 0.13292459 0.023708912
-0.084007494 -0.015956698 0.09938819 0.19419418 -0.072599046 -0.022627184 -0.021441001 0.13121901
-0.021582961 0.053473644 -0.052539576 -0.048010897 0.0016502719 0.10895019 -0.13034292 0.12638645
0.11241943 -0.12034152 -0.008977775 -0.081921026 -0.13296935 0.05812822 -0.050650656 -0.10491759

network.0.bias f4 [8]
00000000: fac1 b93d f49b bbbc 392b 91bd 63e0 94bd
00000010: ba05 01bd 84f2 3d3d 61dd eb3d a776 e13b
0.09070201 -0.022901513 -0.07088322 -0.07269361 -0.031499602 0.04637386 0.11516834 0.0068805995

network.2.weight f4 [16, 8, 4, 4]
00000000: 9aaf ee3c 714e 503d 5694 4c3d 632d 943c
00000010: ec81 70bd fbc3 a03d aca3 803c edc2 f2bc
00000020: a98c e13c fcdb 713b b3ec 5e3d d683 57bd
00000030: 464e a73d 1dbb ba3d 497a cd3c dafb 92ba
00000040: cf4b 1f3d 1f4a 0d3e 5dda b0bc 0dd9 fd3b
00000050: 5be0 8c3d 70ee a73d 285c 9739 9f59 8b3d
00000060: eafe 003e 1f61 8d3d 55b9 fe3d 10f7 f93d
00000070: 52db bf3d 110d 9b3c 7c8d 913d 6c7e 883c
00000080: 18f7 05bd 040b d53d a08c 0bbd 23ac cc3d
00000090: 94d7 cc3d 80a1 063a 88bf 0dbd a777 c33d
000000a0: b584 6e3d 4185 d0bb db3c 0a3d c356 ad3d
000000b0: 4029 aa3d 0c3a 563c b18a d3bb c7cf 9abc
000000c0: c65c 953d c6df 2ebd 9058 e73c 23aa 873c
000000d0: 0771 80bc fbbd 8f3d 5e04 9c3d 1cce 4b3d
000000e0: fd16 7abc e15a b2bd e795 fd3c 30fa 3dbd
000000f0: d8a3 14bd 641b cbbb eebf 2d3d b1d9 a9bd
00000100: 32ca 5d3d 9bd4 14bc 148a ae3d 8e39 633d
00000110: bf8e 0f3d 52cb 913d 19b1 f33d 2c70 453c
00000120: afe9 223d da76 f03d 61ca 9e3d 6c59 733a
00000130: 2a97 a9bc 2899 773a 3b9c 9a3d 296f ae3d
00000140: f5be aa3d 3d03 d5bc e273 6abd d574 2fbd
00000150: 5973 033c ea62 a83d c78d 89ba d278 a3bd
00000160: 967d 29bc 9085 923d 3caf 443d 3f30 613d
00000170: e154 213c 7970 0cbb ac6a dcbc 2e1f 81bd
00000180: 2195 5a3d 192b 8e3c 3e22 36bd 7399 0d3d
00000190: 0290 a03d f33e 92bd 00fd 2cbd a752 f0bc
000001a0: d19a 31bd 1b98 66bd 5fc3 88bd aec1 7abd
000001b0: 8d50 b0bd 7d61 8c3d eb25 9dbd 1344 6f3d
000001c0: b874 7bbc f4a6 c6bc c720 a93d 8063 723d
000001d0: 6bc8 f03c 5bb9 ccba 76c1 77bd 4060 9cbd
000001e0: b531 983d 3c8a 973c 4bfa 2abd 01e1 d23c
000001f0: ff6f 3b3d cfeb b13c 455b 103d 1be0 d5bc
00000200: 1be9 9dbd 6817 b83d f291 323d f44d aa3d
00000210: a573 4dbd 1ea9 453d 9087 77bd 2cb5 a53d
00000220: ea45 573d 49d3 573d 877f 18bd 116c 2dbd
00000230: 049b bd3d 1c7a 963d bb3d 043d d4f3 15bd
00000240: b70d 963d c8d2 003d 3758 0dbd f66d 323d
00000250: 501c 71bd a46c 163b d45e a63c d52f ba3c
00000260: f86a dd3c 05af 783d 6442 0b3d bdfe 893d
00000270: 9513 673d 7ab6 6bbd 1633 89bc b63c 1a3d
00000280: 426a 553d 141e 213d b3f7 37bd d620 cfbc
00000290: 7b70 4bbd 0b4c 9fbb b4a5 aa3d 6a74 b83d
000002a0: 43e1 4ebd 16a3 583d 4f76 41bd 6592 993c
000002b0: 2701 b83b 42a0 273d 76c1 a53d 87bf ca3d
000002c0: 7ce3 f9bc 8541 26bd e6ea c9bc f8a5 febc
000002d0: d4fa 27bb ea69 723c a67c 853c fc19 7fbb
000002e0: e072 ad3c 588a ac3d 803e 5ebd ecf9 263b
000002f0: f46c d4bc 3664 80bd f7be 173c 798b 453d
00000300: 99aa 9f3d 34e6 bd3d ca8d d2bc 923c c63d
00000310: c091 7dbd 3124 c0bc 07a8 d13d 3e20 4fbd
00000320: 1479 d63d e1c1 3e3d 23de b83d cf4f 9d3d
00000330: 2300 a83d 7c8e 013d 58ce aa3d b626 1b3d
00000340: a530 8a3c f55d 22bd 68c9 843d 905e 933c
00000350: dd42 64bb 79fb 6e3c ab35 91bd fd88 de3c
00000360: 517b 143d e542 53bd 9bbb 853c ea26 713d
00000370: c67d e7bb 519e 4b3c a5de 713d 2f99 70bd
00000380: 0be7 bcbc 7956 fbbb 6165 513d 24e2 40bd
00000390: 8c5f b9bd d622 27ba 01fd 783a 80b4 8bbd
000003a0: aa4b 073c 5932 94bc 324a 13bb fe5c 61bc
000003b0: 3576 473d 7fbc aebc deb6 9b3c b29d a4bd
000003c0: 0eb8 563d 6770 57bc 19ff 963b 018f dcbb
000003d0: 49bc 76bd 7dd0 de3c 2fd8 003d a605 733d
000003e0: 29f0 81bc 4175 813d fb15 a03c 96dc 253d
000003f0: 9037 933d 1950 90bd 83c9 13bd 61cd 74bd
0.029136468 0.050856058 0.04994615 0.018088048 -0.058717653 0.0784988 0.015703045 -0.029633963
0.027532892 0.0036904803 0.054424953 -0.052615963 0.08169226 0.0911772 0.025082724 -0.0011213974
0.038890656 0.13797806 -0.021588499 0.0077468217 0.0687873 0.08199775 0.00028869626 0.06804203
0.12597242 0.0690329 0.12437693 0.122053266 0.09368004 0.018927129 0.07107064 0.016661845
-0.03270635 0.10402492 -0.034069657 0.0999377 0.10002056 0.000513576 -0.034606487 0.09544306
0.058232028 -0.0063635414 0.033749443 0.08463814 0.08308649 0.013075363 -0.0064557423 -0.018897904
0.07293086 -0.042693876 0.028240472 0.01656062 -0.015678896 0.07018658 0.076180205 0.049757108
-0.01526427 -0.0870874 0.030955268 -0.046381176 -0.036289066 -0.0061983336 0.042419367 -0.082934745
0.054147907 -0.009083892 0.0852243 0.05547481 0.035048243 0.071188584 0.11899013 0.01205067
0.03977364 0.11741419 0.077534445 0.0009283039 -0.020701963 0.00094451243 0.0754933 0.08517296
0.083372034 -0.02600252 -0.05723942 -0.04283603 0.0080231065 0.08221991 -0.0010494523 -0.07982029
-0.010344883 0.07154381 0.04801868 0.05497765 0.009846897 -0.0021429344 -0.026906334 -0.06304775
0.053364877 0.017354535 -0.04446625 0.03457017 0.07839967 -0.07140913 -0.042233467 -0.029336287
-0.043360535 -0.056297403 -0.06677889 -0.061219864 -0.08609114 0.06854532 -0.07673248 0.05841453
-0.015347652 -0.024249531 0.08258205 0.05917692 0.029392442 -0.0015619205 -0.060487233 -0.07635546
0.07431356 0.018498532 -0.041742604 0.025742056 0.045761105 0.021718888 0.03524329 -0.026107838
-0.07710477 0.089888394 0.043596216 0.0831565 -0.050159115 0.048256986 -0.060432017 0.080911964
0.05255691 0.05269173 -0.037230995 -0.04233939 0.092580825 0.07347509 0.032285433 -0.036609486
0.07326835 0.031451017 -0.034507956 0.0435619 -0.05886489 0.0022952938 0.02030889 0.022727886
0.027028546 0.060713787 0.033998862 0.067380406 0.05641516 -0.05754707 -0.016747992 0.037655555
0.05210329 0.039335325 -0.04491396 -0.025284212 -0.049667817 -0.00486136 0.083323866 0.09006579
-0.050507795 0.052889906 -0.04723197 0.018746564 0.0056153717 0.040924318 0.0809354 0.09899812
-0.03050398 -0.040589828 -0.024648141 -0.031085 -0.0025631683 0.01479576 0.016294789 -0.00389254
0.02117294 0.084248245 -0.054258823 0.0025478555 -0.02593086 -0.06269114 0.009261838 0.048228715
0.07796211 0.092724234 -0.025702376 0.096795216 -0.061906576 -0.023454757 0.10237127 -0.050567858
0.104723126 0.046571616 0.09026744 0.07681238 0.08203151 0.031630024 0.08340138 0.037878715
0.016868899 -0.039640386 0.06483728 0.017989427 -0.0034829893 0.014586323 -0.070903145 0.02716493
0.036250416 -0.051577467 0.016324809 0.058875002 -0.007064554 0.012427882 0.05905022 -0.058739837
-0.023059389 -0.0076702205 0.051122073 -0.047090665 -0.09051427 -0.00063757354 0.000949815 -0.06821537
0.008257786 -0.018090414 -0.0022474644 -0.013755081 0.048696715 -0.021330116 0.019008096 -0.080378905
0.052421622 -0.013149357 0.0046080467 -0.0067309146 -0.060238156 0.027199024 0.03145617 0.05933156
-0.015861588 0.063211925 0.019541731 0.04049357 0.07188332 -0.070465274 -0.03608085 -0.059766177

network.2.bias f4 [16]
00000000: f359 00bd b003 883d e896 343d ebe2 c53d
00000010: 1fe5 823d 910c fe3c 72a8 a93d 05f1 b93c
00000020: 54fc 7fbd 74f6 23bd 09a4 82bd 2728 1a3d
00000030: f466 bcbc b755 923d 880d f3bb 6ea2 7cbd
-0.031335782 0.06641328 0.044089228 0.09662422 0.06391358 0.031011852 0.082840815 0.022697935
-0.0624965 -0.040029958 -0.063789435 0.03763595 -0.02299831 0.07145255 -0.0074173845 -0.061678343

network.5.weight f4 [32, 16, 4, 4]
00000000: c0a3 bf3b 2323 70bd 2df6 40bd 89b1 3bbd
00000010: 9a5f 623c 7ea1 093d bc94 133d 0bc5 bcbc
00000020: 56f0 3cbd 8f17 95bc b7eb b73c b337 083d
00000030: 95a8 14bd ea45 7ebb 77c3 2fbd a8d2 ff3c
00000040: 3e4b 643d 5168 6a3d 2d55 a93c 947a e53a
00000050: 2376 5b3d 669c ccbb 9f53 de3c 41d8 253c
00000060: fb01 fa3c c9cb ab3b c590 753d 7416 f3bc
00000070: 9334 893c 32aa 8bbc 0863 e5bc a0b5 6b3d
00000080: 59f1 bd3a d7c9 ed3a 28a2 0f3d b7a7 963c
00000090: 0a6b c3bb 3498 133d c741 c6bb fc46 b33c
000000a0: 338c 293b 4d49 183d c68e 03bd 2a18 f33b
000000b0: 2f71 30bc 8a5e 4cbd 4aa3 06bd e3a1 1dbc
000000c0: d0a6 cdbc 6986 83bd 6cd3 57b8 2ad0 62bd
000000d0: 3d9a 5dbc 2ad2 2ebc 1726 64bd fad6 2dbd
000000e0: 9c67 a8bc b756 11bd 9b33 73bd 907c 0cbd
000000f0: d61e ccbc 9f4f e9bc de6b fd3c 38ae c83c
00000100: bcf6 fc3b 83c3 b9bc d19b 4bbd cc61 033d
00000110: aa4f 58bc ba33 3f3c dd54 00bd dddf be3c
00000120: 0e57 46bd c3d9 72bb d7e8 1abd d109 6e3b
00000130: 0ed4 2d3c 6a16 87bc 269b 363d 96b2 3cbd
00000140: cc62 a83c 8219 063d 81fc ec3c 41e5 44bd
00000150: 4aae 1dbd 2100 3f3d b62e 1cbd becd 25bd
00000160: fb95 c83c 749c 81bc ac5d af3c 03c4 5a3d
00000170: 976a 1e3c c893 64bd f989 233d 8d6e 6ebd
00000180: 4a63 123d 8633 f33c 9d1e 1fbc 9ddc 6c3d
00000190: 5700 333d 5ce5 b0bc 967f b23c bfca 1ebd
000001a0: 0c80 f8bc 3485 9239 eec3 67bd 931f 0b3d
000001b0: 8989 1f3d 2bae 0a3c 57e2 debb 0678 c5bb
000001c0: 99f8 7a3d a4c5 453d 4f2c c23b 0f30 69bc
000001d0: bf81 01bd 341e 363c b0d7 59bd cb17 6cbd
000001e0: 90ed 70bc b9fb 3e3c 8b01 023c 49f5 7d3d
000001f0: 33c8 d5bc 2d68 e83a fd76 993c d5e4 eb3c
00000200: 206b 20bb 4522 18bd 14fb bc3c f381 533d
00000210: a487 4bbd e5a8 793d 78ec 913c 5edc 5fbc
00000220: c85d 83bc eeab 67bd f32a 353d e83d 2d3d
00000230: b886 f8bc 514c 20bd a00c 9e3c fb55 6a3d
00000240: f80a 593c 5cf1 4e3d 6b5c d33c ccaf 7abd
00000250: e43c 62bd 63b6 b2bb 8d59 033d d8a7 743c
00000260: 22f7 41bc 8848 0dbd 1735 6d3c 71af e63b
00000270: 835d 613c 8071 f63c dd2a b03c 3347 873c
00000280: 4132 033d 1452 7fbd 2e5d 23bd 20fc 293d
00000290: 5955 dd3b 959f 663d 296f 753c e4a6 21bd
000002a0: c32f 7dbc 0eae 103c b2fc 25bd 6f47 023d
000002b0: 7439 86bc b12b 1fbd 9eb5 cc3c b94b dabc
000002c0: 7875 813d 8d25 15bb 8c2e 4d3d 1175 683d
000002d0: ee73 413d 8107 35bd 1b5b f73c 5003 413d
000002e0: ff73 ff3c df2d f63c 4abe 853c 5e84 383d
000002f0: c592 96bc c621 27bd dece 763d 4971 f23c
00000300: 5009 343b 1f7a 423d bf03 ec3c 9199 65bd
00000310: 184a b8bc cda5 26bd 32eb 5d3d 95a2 cebc
00000320: c4ce 21bc eaab 143d 42bb 45bd f7fd 1abd
00000330: 099e 12bb a1d9 113d e072 c03c d532 0dbc
00000340: a8f2 b3bc 25b9 0bbb 8c9f 703c 213c 0c3c
00000350: ff24 a5bc 6f01 f5bc b583 02bd 45a9 263d
00000360: bd8c eb3c 3c24 64bc 733e 133d 805b 5c3d
00000370: 4225 e1bc 34f3 653d 98f8 573d 9507 1d3d
00000380: b647 3ebc f576 2f3d c00c 50bc fd3f 1b3d
00000390: 7aea c9bc d98e 7fbc 4afe c03c 16f2 41bc
000003a0: c45f 463d 31aa 3c3a 0d85 27bb 2447 b43c
000003b0: bc8f bdbc e3b2 92bc 6ca4 1a3d 056e 72bd
000003c0: bbbb 28bd 67a3 d23c bcb7 c13b c959 e3bc
000003d0: 2f89 dc3b 4bb4 243c ab53 4fbd 1097 9d3c
000003e0: b157 bfbc 137a fc3c 5f12 86bc c1f4 66bd
000003f0: dc41 713b 691b fcbb bf71 0f3d 031a 82bc
0.005848378 -0.05862726 -0.04710977 -0.045823608 0.0138167385 0.033601277 0.036030516 -0.023043176
-0.04612764 -0.01819971 0.022451265 0.033256244 -0.036293585 -0.0038798996 -0.04291102 0.031228378
0.05573582 0.05722839 0.020670498 0.0017507845 0.05357946 -0.00624423 0.027139483 0.01012236
0.030518522 0.005242799 0.059952516 -0.029673792 0.016748702 -0.017048929 -0.028001323 0.057546258
0.0014491483 0.0018141818 0.035066754 0.01839052 -0.005963688 0.036033824 -0.0060503217 0.021884434
0.0025870919 0.03717928 -0.03211858 0.007418652 -0.010769173 -0.049894847 -0.03287057 -0.009621116
-0.025103956 -0.06422121 -5.1456896e-05 -0.055374302 -0.013525543 -0.010670224 -0.055700388 -0.042441346
-0.020557217 -0.03548309 -0.059375387 -0.03429848 -0.024917047 -0.02848035 0.030935224 0.024497136
0.0077198427 -0.022676235 -0.049709145 0.03207569 -0.013202587 0.011670047 -0.031330932 0.023300106
-0.048422866 -0.0037056066 -0.03781971 0.003632177 0.01060964 -0.01649018 0.044581555 -0.04606875
0.020554923 0.03273917 0.028928997 -0.048070196 -0.038496293 0.046630982 -0.038130485 -0.040479414
0.024485579 -0.015821673 0.02140697 0.053409588 0.009668968 -0.055804998 0.039926503 -0.0582109
0.03573922 0.029687654 -0.009711889 0.05782758 0.043701496 -0.021593742 0.021789353 -0.038767572
-0.030334495 0.00027946534 -0.056583337 0.03396566 0.038949523 0.008464376 -0.006801884 -0.006026271
0.061272237 0.048284188 0.005925692 -0.0142326495 -0.031617876 0.011115599 -0.05318421 -0.05763988
-0.014705077 0.011656695 0.007934938 0.0620015 -0.026096439 0.0017731242 0.018733496 0.028795639
-0.0024477914 -0.037142057 0.023068942 0.0516376 -0.049689904 0.060952086 0.017812952 -0.0136633795
-0.01603593 -0.05656045 0.044230413 0.042295367 -0.030337676 -0.03913528 0.01929313 0.057210904
0.013247244 0.050523147 0.025800904 -0.06120281 -0.05523385 -0.005453871 0.032067824 0.014932595
-0.011838706 -0.034493 0.01447799 0.007039957 0.013755205 0.030083418 0.021504814 0.016513443
0.032030348 -0.062334135 -0.039883785 0.04150021 0.006754559 0.056304533 0.014980116 -0.0394658
-0.015453282 0.00883056 -0.040524192 0.031806406 -0.016384818 -0.038860027 0.024988946 -0.026647436
0.063212335 -0.0022757978 0.05009322 0.05675227 0.0472297 -0.04419661 0.03019481 0.0471223
0.031183241 0.03005117 0.016326088 0.04504811 -0.018380532 -0.040803693 0.060255878 0.029595034
0.002747137 0.047479745 0.02881038 -0.056054655 -0.022496268 -0.040685464 0.054179378 -0.02522401
-0.009875957 0.036296763 -0.048274286 -0.037839856 -0.0022372028 0.035607938 0.023492277 -0.008618076
-0.021966293 -0.0021320072 0.014686476 0.008559258 -0.020159243 -0.02990791 -0.031863887 0.04068877
0.028753633 -0.013924655 0.035948228 0.0537982 -0.027483586 0.05614014 0.05272731 0.03833731
-0.011613777 0.042838056 -0.012698352 0.03790282 -0.02464794 -0.015598022 0.023558754 -0.011837503
0.048431173 0.00071969914 -0.0025561482 0.022006579 -0.023139827 -0.017907565 0.03775446 -0.059186954
-0.04119466 0.025712682 0.0059117954 -0.027752774 0.0067302207 0.010052751 -0.0506169 0.019237071
-0.023357244 0.030819928 -0.016366182 -0.05638576 0.0036812937 -0.007693697 0.035020586 -0.015881544

network.5.bias f4 [32]
00000000: 00f9 8d3c ce6c 843c 945b c33b e1cf 57bd
00000010: 98f0 2bbc 8536 56bd 34d3 433d 7c86 3fbc
00000020: 06b3 c8bb d1c1 9f3b 349a e9bc 0526 82ba
00000030: 6b9f d13c dd07 783d 0f0c 8c3c e19e 1abd
00000040: 4713 423d 76fd 2c3d 224b 253d 8f67 793d
00000050: 2e60 66bc 6a3b 103d 3b78 5e3d e573 573d
00000060: b898 10bd 7c24 a33d 820e e63a 7837 d6bc
00000070: 2382 653d e027 e9bb e83d ad3c 103e 8f3d
0.017330647 0.016165163 0.0059618447 -0.052688483 -0.010494374 -0.052298088 0.04780884 -0.011689778
-0.006124857 0.0048753996 -0.028515913 -0.0009929544 0.025588712 0.060554374 0.017095594 -0.037749175
0.047381666 0.042233907 0.040354855 0.060889777 -0.014061017 0.03521291 0.05431388 0.05260076
-0.035301894 0.07965943 0.0017551931 -0.026149496 0.05603231 -0.007115349 0.021147683 0.06994259

network.9.weight f4 [128, 288]
00000000: 0493 fabc 07d9 1bbd 24b8 50bc 521a b5bb
00000010: 44f2 253d 7212 13bd 8b9d 303d 9b1f 8bbc
00000020: 9e0a c83b 6497 6b3b 51ee 6cbd 0680 c93c
00000030: 1806 a13c ee19 733d cd70 673d 8dc5 57bd
00000040: 02c5 e13c 8c93 e13b 76c5 e13b 2628 113d
00000050: 9b6f 263d ecf9 493d 4417 9a3b da99 213d
00000060: dddf 0abd f26b 0fbd f7bc bd3b e28a 743c
00000070: 9715 03bd e107 5f3d 3227 58bd 1a81 09bd
00000080: ae79 6c3d f180 11bd 5e16 243d 1887 47bc
00000090: 16d8 18bd 7844 c5bc aea6 623d eac2 733d
000000a0: b83b 6ebc aeb1 a93c 3a83 bfbc 9102 e53c
000000b0: 4a4b 423d 0ff3 35bb 8b8c 183d b926 6fbd
000000c0: 98c4 503c 6038 083d 1b8b 613d d33b 7ebc
000000d0: e4e5 8cbc ccb7 1f3d 562b 243d 054c 5cbd
000000e0: 5c48 c43c 2846 e8bc 8206 1f3c b78e 2fbc
000000f0: 5657 1cbc fe14 8cbc 3f56 45bd 6a1f 69bd
00000100: 0917 4cbd 66f1 00bd cf40 9fbc db0b 123d
00000110: 7ecc 18bd 4adc f0bc 0433 70bd c85c 33bd
00000120: 1ee1 d9bc 144c 40bd ab8c 4d3d d548 a13c
00000130: 0341 193d a79a 3f3c 0e7f 4fbd f68f 4abd
00000140: 44b9 65bd 2ea5 2abd 8e11 be3c b65f 42bc
00000150: b9f2 3fbb b02b 993c 85f8 083d e769 94bb
00000160: 764d 9e3c c6f7 a6bc 4149 c63c b68f 0bbd
00000170: 6b34 923c f7c5 433d 68ac db3a 988f 193d
00000180: 0615 04bc 8ea4 62bd 54b2 afbc 666c 683d
00000190: 2c75 243d 00a8 0cbc f4c4 4e3d 2940 f73c
000001a0: 62e0 523d 8de8 24bd 3aef 21bc 71f3 b439
000001b0: 7ae0 8ebc 051e ccbc 9ee9 2b3d 2094 2abd
000001c0: 3691 783b eb91 01bd a7b1 51bc 02ac 08bd
000001d0: 94aa 483d 101c 413d 05df e1bb 43c4 ddbc
000001e0: 4cf0 473d fa00 52bd 6c47 09bc c89e 4bbd
000001f0: b20e 6dbd 7012 093d 75ec 673d f770 623b
00000200: c612 803c fb2a 003c 2834 ffbc 3b6b 63bd
00000210: bc97 63bc df70 c93c 5172 b6ba b3af 483d
00000220: eb57 45bd 8344 f0bc 5141 263d 885b d3bb
00000230: baea 133d 465c 6ebd 20d9 e3bc 157a cdbc
00000240: 00f6 69bc 7bf4 3e3b 3090 023d 99e4 53bc
00000250: 2365 46bd 12e8 be3b a705 66bd 81d5 0c3d
00000260: f01f 69bd 6ea9 b6b9 89d5 683d 0a49 bcbc
00000270: db2e c73c 5491 3b3d 763b fdbb 18ff 643d
00000280: 6d29 acbc 7c97 25bd c555 2f3d 5042 a6bc
00000290: 6123 27bd d97d 61bc 84e7 6bbd 225b 11bd
000002a0: a665 2a3c 32ad f2bc f337 733c 9a3a cfbc
000002b0: e1c0 ccbc 37be 353d 237e 183d d6c7 7f3c
000002c0: 75ef 203d ec09 debb a5b5 393c b1d3 d93c
000002d0: 76ea 2ebc 86f4 973c 99d2 1b3d 8668 3d3c
000002e0: 4bcf 5f3c c957 1a3d f471 203d 3cbc 0d3c
000002f0: 32cf 973c 2c1c 5fbd efdc e73c 3a43 653d
00000300: 74e0 7dbc 6129 6dbd c7d1 d43c f987 303c
00000310: ce08 00bd 8483 7fba 770b d63c e539 4c3d
00000320: f7b8 6cbc c9a0 f8bc 3f6b 12bc e427 893b
00000330: 8e0d 0bbd 2a5c ca3c 9888 a0bc ac2c 0dbc
00000340: 4880 293d 2860 1b3b 8ccd 6abb 21a7 983c
00000350: beb6 48bd 3e75 eabc 76bd 55bd da00 40bd
00000360: 534a 77bc 89df 03bd ff67 d83c 811b 873c
00000370: ac07 2c3d bc94 653d 1768 6bbd 41b4 13bd
00000380: 29d5 6a3d d000 edba 90be 98bc 17d3 09bd
00000390: 9a6f e7bc aa26 0c3d e9b5 873c b9a2 bbbc
000003a0: b9c5 363d 7835 f2bc 1549 dfbc 2907 3dbd
000003b0: ba74 e53c 6e6c 82bc 845e 0abd e915 0b3d
000003c0: 9511 9abc 6092 1f3d ed06 00bd eb99 4c3c
000003d0: d5d5 203d 0b5f 2fbd c085 f8bc eecd b73c
000003e0: fff1 2abd 6745 443d 1932 073c 853f 093d
000003f0: 12f1 8ebb 81ee 4cbd 5658 87ba 06e4 54bd
-0.03058768 -0.03804877 -0.012739215 -0.0055268193 0.040514246 -0.035906263 0.043118995 -0.016982844
0.0061047813 0.003594839 -0.057844464 0.02459718 0.019656226 0.0593509 0.05650406 -0.052678633
0.027559761 0.006884044 0.0068899943 0.03543868 0.04063378 0.04931061 0.0047024805 0.039453365
-0.0339049 -0.035015054 0.0057903486 0.01492569 -0.03200301 0.054450873 -0.052771755 -0.033570386
0.05773323 -0.03552336 0.040060394 -0.012178205 -0.03731545 -0.0240805 0.05533474 0.059512056
-0.014540605 0.020714607 -0.023378003 0.027955325 0.047435082 -0.0027763282 0.037243407 -0.05838654
0.012742184 0.03325689 0.055064302 -0.015517193 -0.017199464 0.03899364 0.04008039 -0.053783435
0.023960285 -0.028353766 0.009706141 -0.010715178 -0.009542307 -0.017099854 -0.048177954 -0.056914724
-0.049826656 -0.031480215 -0.019440083 0.035655838 -0.037304394 -0.029401917 -0.058642402 -0.043789655
-0.026596602 -0.046947554 0.05018298 0.01968805 0.037415516 0.011694587 -0.05065828 -0.049453698
-0.056084886 -0.041661434 0.02320173 -0.01186364 -0.002928896 0.01869759 0.03344013 -0.004529226
0.019324046 -0.02038182 0.024204852 -0.0340726 0.01784726 0.047796216 0.0016759755 0.037490457
-0.008061653 -0.055332713 -0.021447338 0.056744 0.040150806 -0.008584976 0.050480798 0.030181961
0.05148352 -0.04026084 -0.009883696 0.00034513653 -0.017441023 -0.024916658 0.04197084 -0.04164517
0.003792835 -0.0316333 -0.012798703 -0.033367164 0.0489908 0.047145903 -0.006893041 -0.027071124
0.04881315 -0.051270463 -0.008378845 -0.049711972 -0.057875343 0.03346485 0.056621987 0.0034552196
0.015633952 0.007822747 -0.0311528 -0.055522185 -0.013891157 0.024589954 -0.0013919567 0.048995685
-0.04817955 -0.029329544 0.040589634 -0.0064501204 0.036112525 -0.058193468 -0.027813494 -0.025082627
-0.014279842 0.002913742 0.03187579 -0.01293292 -0.048436295 0.005826005 -0.056157734 0.0343833
-0.056915224 -0.0003483998 0.056844268 -0.022984046 0.024314335 0.045792893 -0.0077280356 0.05590734
-0.021015847 -0.04042767 0.042806406 -0.020295292 -0.040805224 -0.013762915 -0.057593837 -0.0354873
0.010400211 -0.029623602 0.014844882 -0.025296498 -0.024994316 0.044370856 0.03722967 0.015611609
0.039290864 -0.006776085 0.011334811 0.0265902 -0.010676017 0.018549215 0.03804264 0.011560565
0.013660262 0.037681375 0.039171174 0.008650836 0.018531416 -0.054470226 0.028303592 0.055972315
-0.015495408 -0.05790079 0.025978936 0.010774606 -0.031258397 -0.00097470754 0.026128514 0.0498599
-0.014448396 -0.030350106 -0.008936702 0.0041856635 -0.033948474 0.02470215 -0.019596383 -0.008616608
0.041382104 0.0023708437 -0.0035828082 0.01863438 -0.0490024 -0.028620359 -0.052182637 -0.046875812
-0.015093404 -0.0321956 0.026416777 0.016492607 0.041999504 0.056050047 -0.057472315 -0.036060575
0.05733219 -0.0018081907 -0.018645555 -0.033648577 -0.028251458 0.03421656 0.016566234 -0.02290474
0.044622157 -0.029566512 -0.027256528 -0.046149407 0.028009761 -0.015920844 -0.033781543 0.033956442
-0.018807212 0.038957953 -0.031256605 0.012487869 0.039266426 -0.04281525 -0.030337214 0.022437062
-0.04173469 0.04791775 0.00825169 0.033507843 -0.004362234 -0.050032143 -0.0010326009 -0.051975273

network.9.bias f4 [128]
00000000: 0443 583d 6a80 04bc 616a cfbb 6f1d f0ba
00000010: 748b 08bd 7c19 6ebd 67ab e63c d168 60bd
00000020: 3c41 4e3d 7aa6 c03b c659 2d3d 37eb 00bd
00000030: 67c6 55bd 5f1c 27bd ad02 4abd cf31 babc
00000040: 2220 1fbd 9733 4c3b b14d 4e3d bef8 003c
00000050: 3748 943c 193d 2ebc 24af f8bc 01fa dcbc
00000060: ecbc a83c 5387 8e3c 8a3a 43bd bb58 49bd
00000070: 7ad5 423d 6eb0 153d 3cdc 12bd c537 d4bc
00000080: a4fa fe3c cab2 f5bc 7b15 c03c b85e e6ba
00000090: 5b3d b43b da2c 5dbd a485 dcbc 6d49 933d
000000a0: 35e7 713d ece7 1b3d d1fa e8b8 95dd 79bc
000000b0: 50a3 a83c 721f 2fbd 0731 44bc a1da 9ebc
000000c0: 9c49 5bbc d9e0 0f3d 844f 1f3d bc3b 983c
000000d0: 563b 3cbb 9867 55bd 3cec 72bd da8d a13d
000000e0: 8ad5 603c 47e3 093d 2f82 693d 6324 9c3c
000000f0: e58e 90bc e681 ab3c 5c74 2a3b abb2 b63c
00000100: ee3b 313d 7362 3abd 3070 083d edf9 403c
00000110: dd8c 52bb d3d7 6ebd ded4 c63c 67d9 47bd
00000120: 2ff5 30bd cc38 9ebc 5d36 11bb f632 e9bc
00000130: 9ee6 33bd e87b 08bb b835 2b3d 0344 3cbd
00000140: a5c8 3dbd 981c 1b3d 06c4 61bd dab1 4abd
00000150: 34b6 283d 9afc 2d3d 383b 4c3c 168e 67bb
00000160: 84ac 55bd 8a4c a4bb d7cc 4cbd ab09 95b8
00000170: 7ab4 b3bc 946c a3bc ad31 4bbc cfb0 0ebd
00000180: 42a4 85bc 99a3 623d bfee 2ebd 0f29 22bd
00000190: 826a bc3c dc0f 2bbd 9aea 3cbd 7ef7 683c
000001a0: e167 62b9 f1dc 2ebd 6bf7 22bd cbd0 813c
000001b0: 9613 3cbd 7096 a1bc e819 cc3d 9a55 68bc
000001c0: 8bdf 6f3d 2251 9fbc 570b 263d 2592 973d
000001d0: ee59 55bd 96ee 8f3d 3b2e 7ebc fc35 38bd
000001e0: 2e1e ab3d 8385 4d3d ab69 5b3c 23c3 5abd
000001f0: 7206 2abd bc11 583d cdc7 6b3c 6ea5 4a3d
0.052798286 -0.008087257 -0.00632982 -0.0018319319 -0.033336118 -0.058129773 0.028157903 -0.05478746
0.05035518 0.0058792206 0.042321943 -0.03147432 -0.052191164 -0.04079854 -0.049318958 -0.022728829
-0.038849004 0.003115868 0.05036706 0.007871805 0.018100841 -0.010634684 -0.030356951 -0.02697468
0.020597897 0.017398512 -0.04766325 -0.049156886 0.04756687 0.03654521 -0.035854563 -0.0259055
0.031125374 -0.02999248 0.023447743 -0.0017575836 0.005500478 -0.053997852 -0.026919194 0.07191739
0.059058387 0.038062975 -0.0001110934 -0.015250583 0.020585686 -0.042754598 -0.01197458 -0.01939136
-0.013384249 0.03512654 0.03889419 0.018583171 -0.002872189 -0.052100748 -0.059307322 0.07888384
0.013722787 0.033664014 0.05700892 0.01906032 -0.017646262 0.020935964 0.0026009297 0.022301992
0.043270044 -0.045504045 0.033310115 0.011778337 -0.0032127418 -0.058311295 0.024271425 -0.048791315
-0.043202575 -0.019314192 -0.0022157647 -0.028466683 -0.043921106 -0.0020825807 0.041799277 -0.0459633
-0.046333928 0.037869066 -0.055118583 -0.04948602 0.041189387 0.042477228 0.012465291 -0.0035332493
-0.052166477 -0.005014007 -0.050000038 -7.1066745e-05 -0.021936644 -0.019949235 -0.01240198 -0.034836587
-0.016313676 0.0553318 -0.042708155 -0.039589938 0.023000006 -0.04176317 -0.04612217 0.014219163
-0.00021591737 -0.042691175 -0.039786737 0.01584663 -0.045917116 -0.019725055 0.09965879 -0.014180565
0.058562797 -0.019447867 0.04053816 0.07400922 -0.052087717 0.070279285 -0.015513952 -0.04497336
0.08355366 0.050176155 0.013391892 -0.053408753 -0.041510053 0.052751288 0.014390898 0.049474172

network.11.weight f4 [128, 128]
00000000: 4d81 90bc 76b0 5cbc f3a0 85bd 3ce4 38bb
00000010: 6c45 61bb 3d26 243d 7177 4e3c eb0d 35bd
00000020: 6b49 0bbd 43f7 75bd 9c7f 49ba 07a2 103d
00000030: 8496 a23c be9d 10bd a64a 4fbb 86ad e43c
00000040: 4b52 943d d396 833c 9461 893d fc19 65bd
00000050: fad0 a13d bb1e 603d b02a 8abd 5cc2 813d
00000060: a16e 0a3d 0e96 163d 861b fa3a 3d31 49bd
00000070: 7ad1 a43d 062f 713d c093 eabc 7b96 57bc
00000080: 7165 9dbc b721 d4bc ae5b 9fbc 2d7b 0abd
00000090: d728 1e3c b7fb 3b3c a549 993d 5267 dbbc
000000a0: 29de 2bbd c596 633d 23ca 0abd 8300 a7bd
000000b0: fd8b 9abd 6b0f dbbc 1f37 8d3d 3f19 b93d
000000c0: 44ca 833d f37d dbbc 607f 803d 5e61 b3bd
000000d0: 2d3f 13bd e54d 403d f934 433d 05dd d1bc
000000e0: 9176 053d 8a1b 51bd 7cd6 1bbd f35a 18bd
000000f0: 4df5 8bbd c0d5 afbc 33c6 a7bc b2ce 433d
00000100: 16a3 4f3c 095f ab3b 88fe 113c e8b2 913d
00000110: bee5 2f3c b2d0 c2bc 4506 893d 8226 123d
00000120: 408e 02bd 9bc1 bf3d ed72 d23c de67 bdbc
00000130: ef03 3dbd 4cd2 09bd 1ae2 9d3a 442d 81bd
00000140: c06d 44bb bf61 aa3d fee3 7fbd 63d7 77bd
00000150: 9460 a3bb 4c71 76bd 4e45 85bd ad11 c33c
00000160: c978 3abd eabc fdbb fadc 8b3d fadb 223d
00000170: 5636 9c3d a837 8dbd 08b4 26bd b395 87bd
00000180: b9d3 f33c d0f7 97bd 4696 a13d 878f 7a3d
00000190: 5de8 683d b3c3 51bd 62ad 45bd 1659 95ba
000001a0: 99ee 6cbd 4a49 843d 2460 95bb b636 4bbd
000001b0: 0b3a 8c3d f278 07bc 117b 28bd 871f 88bc
000001c0: 734e 2b3d c61d 913d e872 88bd ed87 ce3c
000001d0: bc19 743d a1f2 77bd 5c24 2dbd 2016 8fbd
000001e0: 745c 853d f3b1 a93d 15fd 27bd c754 94bd
000001f0: 3efe 6bbb 824c 78bd ae43 793d 802e 0a3d
00000200: 6b44 5f3b da07 933d 619d 8bbc c20e 973d
00000210: dc8b 9c3d 1c65 86bd 9dbd 8cbd 8aed b93b
00000220: c546 763d 685c edbc 73c5 91bd f94a 14bd
00000230: b962 5fbd 4f02 33bd 3116 9739 4d85 a83d
00000240: ea13 c73c 759f 4bbd af2d 503d 7eb9 7abd
00000250: cff7 b5bc 6a4f 863c 39d9 4e3d 75c8 84b9
00000260: a23b 2bbd d165 163d 1a35 12bc 20f1 8bbd
00000270: 0c40 a7bd 8370 8dbd d02b db3b 8110 07bb
00000280: 0efc efbc 604b e939 f770 8bbd ec4d 82bd
00000290: 17b8 93bd b007 133c 981b 85bd 2339 2f3c
000002a0: 7714 84bc 3b08 a0bd fb80 283d 7d07 2ebd
000002b0: a9c5 413d 6a4d 0dbd 973b 12bd 9ab2 183d
000002c0: ef0f b63c ddac 05bd dfe2 20bd a70b a6bb
000002d0: f84b 80bc d20a 733d f2f1 933d 945a 9d3d
000002e0: e410 213d 9db3 a1bd 570b 98bd 6a66 f7bc
000002f0: 9074 a63d 77f2 6cbd 6ea9 8d39 7c8e 01bc
00000300: 0172 83bd 847c e3bc 4e5b b23d fc2a eb3c
00000310: b5c3 943d 2b7f 48bc de0a 263d b36a 8bbd
00000320: 7c8c 5e3d 442e 233d 7aa7 613d 252b f73c
00000330: 3bd5 50bd 474d 2dbc d850 8a3b a03d 7bbd
00000340: 4b8b 2bbd b781 96bd cbd9 873b e183 193d
00000350: 8c66 03bd 62de cfbc 8166 173c 01a9 8dbd
00000360: 20a1 5f3d 3203 9bbd c46d 333d a3e2 8b3c
00000370: 5dbf c1bc e3cb 78bd bf74 b03d dee5 0abd
00000380: 5162 9f3c 8da4 cfbc b102 15bd 00ab 0c3c
00000390: 65da fbbc c153 583d 52bd 0c3d 22ac 253d
000003a0: eb5f a63d 4a1c 6e3c 7e0b bbbd ae1c 84bc
000003b0: fc26 713d c6c3 d43b 1160 1cbd 2eca abbc
000003c0: 657c 9f3d c7df a33c 8d26 103d efab b03a
000003d0: da11 4f3b ef69 063d 7ae0 ee3c 893d c5bc
000003e0: fac7 6bbd d71a 783d 37b5 e23c e6cb 113d
000003f0: d6a2 2bbd d539 fdbc 4b1c 303d efe2 383d
-0.01763978 -0.013469806 -0.06524839 -0.002821221 -0.0034373654 0.04007553 0.012601719 -0.044202726
-0.034005564 -0.06005026 -0.0007686557 0.03531077 0.019847162 -0.035306685 -0.0031630187 0.027914774
0.07242259 0.01606313 0.06708065 -0.055932984 0.07901187 0.054716807 -0.06746423 0.06335899
0.03379691 0.036764197 0.0019081689 -0.049119223 0.08047767 0.058882736 -0.028634906 -0.013158436
-0.01921341 -0.025894983 -0.019452896 -0.033808876 0.009653292 0.011473588 0.0748475 -0.026782665
-0.041959915 0.055563707 -0.03388418 -0.081543945 -0.07546232 -0.02674075 0.06895279 0.090380184
0.064350635 -0.026793456 0.06274295 -0.08758806 -0.03594892 0.046949286 0.04765794 -0.025618086
0.032583777 -0.051051654 -0.038046345 -0.03719611 -0.06833897 -0.021464229 -0.020480251 0.047804542
0.01267316 0.005229835 0.008910783 0.07114202 0.010735927 -0.023781154 0.06690649 0.035681255
-0.03187394 0.09363099 0.025689567 -0.023120817 -0.04614633 -0.03364782 0.0012045533 -0.06307462
-0.0029972643 0.08319425 -0.06247329 -0.060508143 -0.0049858782 -0.060166642 -0.065073594 0.02381214
-0.045525346 -0.0077434676 0.06829257 0.039760567 0.07627551 -0.06895381 -0.040699035 -0.0662035
0.029764043 -0.07420313 0.078899905 0.061172035 0.056862224 -0.051212024 -0.048261054 -0.0011394348
-0.057844732 0.06459291 -0.00455858 -0.049612723 0.06847008 -0.008268582 -0.04113299 -0.016616596
0.041822862 0.07085757 -0.06662542 0.025211299 0.059594855 -0.060534123 -0.042271003 -0.06986642
0.06511775 0.08285894 -0.041012842 -0.072427325 -0.0036009694 -0.06061984 0.06085556 0.033735752
0.003406788 0.07179232 -0.017042818 0.07375862 0.076438636 -0.06562254 -0.06872103 0.005674069
0.060126085 -0.028974727 -0.071177386 -0.036204312 -0.05453751 -0.043703374 0.00028817498 0.0822855
0.024301488 -0.049712617 0.050824817 -0.061212055 -0.02221289 0.01639529 0.05050013 -0.00025326354
-0.041804917 0.036718193 -0.008923793 -0.068331 -0.08166513 -0.069062255 0.0066885725 -0.0020609202
-0.029294994 0.00044497382 -0.06808656 -0.06362519 -0.07212847 0.008974001 -0.06499404 0.010694775
-0.01612304 -0.0781407 0.04113863 -0.04248761 0.047307644 -0.034497656 -0.03570136 0.037279703
0.022224395 -0.03263556 -0.03927886 -0.005067307 -0.015661225 0.05933649 0.07223882 0.07683292
0.03932275 -0.07895587 -0.07424038 -0.030200202 0.08127701 -0.05784842 0.0002701985 -0.007907506
-0.06418229 -0.027769335 0.08708821 0.02870702 0.07263891 -0.01223735 0.040537708 -0.06807461
0.054333195 0.039839044 0.05509136 0.03017194 -0.050984602 -0.010577506 0.004221063 -0.061338067
-0.041880887 -0.0734896 0.004145836 0.037479285 -0.03208022 -0.025374595 0.009240747 -0.069170006
0.05459702 -0.07568969 0.043805853 0.017075842 -0.02365082 -0.060741317 0.086160176 -0.033910625
0.01945606 -0.025347019 -0.03637952 0.008585691 -0.030743787 0.05281425 0.034360237 0.04044736
0.08123764 0.014533112 -0.09133051 -0.016126957 0.05887507 0.0064930646 -0.038177554 -0.02097043
0.07787398 0.020004166 0.035193015 0.0013478975 0.0031596334 0.03281587 0.029159773 -0.024077194
-0.05756376 0.06057247 0.0276743 0.035594843 -0.04190334 -0.030911366 0.042995732 0.045138296

network.11.bias f4 [128]
00000000: 0177 123c 75f0 3bbd 9d9e 4c3d f7ab f5bb
00000010: 245c 403d f674 88bd 954a 45bd c13d 93bb
00000020: bcb1 8c3d b210 3bbc 48f7 36bd 8819 0ebc
00000030: ed86 be3d 2b66 2d3d 5f8d a13d 598f 2ebd
00000040: 0c05 9dbc d6a9 8f3d b95a b9bc 18d2 b6bc
00000050: 907b 2cbd 75e2 adbd 7b5b 2b3e 0d45 213d
00000060: 0fb2 3dbd 29b2 abbd d94c 6f3d 408d db3d
00000070: 107e 97bc 9999 83bd a64c 82bd 7960 f73c
00000080: fc73 e8bc 4dca 6fbd 7cdb c03d 9635 143e
00000090: 989e ef3c dcbd d83d 6341 6cbc ae95 98bc
000000a0: 30de 4a3d 7405 503d e3d2 e83c ef60 e33d
000000b0: 7bfc 7c3b 10f5 fe3d 481f f43d b0cd 02bd
000000c0: ec09 9cbc 9b15 523c 3476 173b c58c 13bd
000000d0: 9d69 4c3c 45b7 85bc c3fa 98bd 2d39 173e
000000e0: fdd8 9c3d 46f5 ca3d 9514 d6bc 77c8 013e
000000f0: 0241 9c3d 703b 413d e019 733d 93ed ebbc
00000100: 18c4 e0bc 7ef2 80bc 1318 ef3d d966 093e
00000110: 0de0 b3bd ae0f b1bd 07c2 bb3d 52a9 d23d
00000120: c1c2 263c 78b9 813b 0649 76bd 6ddc 2ebd
00000130: 09a5 d23b 4e5f 573c 66e4 99bd dbe6 013e
00000140: 5ac4 9ebd 14c7 aabd faad b63d 4f49 92bd
00000150: bbd9 a6bd c538 e3bc 32ba 9dbd 4998 91bc
00000160: f3f8 7d3d c5df dc3d 01f9 cf3d fa21 ed3d
00000170: 48a4 acbb 468d 58bd acba 96bc 6fa5 163d
00000180: c8d9 49bd 2311 51bb d845 47bd 3efc ac3d
00000190: e973 6e3d 495f 99bd df12 d13d 409f ca3d
000001a0: 0dcb 123b 047f 053e d9f5 a6bd f054 633d
000001b0: 4da9 d63d 9d22 803c 5d5b c13c 3aa8 bf3c
000001c0: b817 83bd cd10 85bd 23e5 f23d 2225 8cbd
000001d0: 65e9 52bb df37 60bc 976b 77bd d5f8 2b3e
000001e0: e765 343b c671 86bd aea4 673c 139a 57bd
000001f0: 7656 183d 9558 a33d 0600 b9bd f183 aebd
0.008939506 -0.045883615 0.049955953 -0.0074973064 0.046962872 -0.066629335 -0.04816683 -0.0044934456
0.06869838 -0.011417555 -0.04466942 -0.008673079 0.09303079 0.042333763 0.078882925 -0.042617176
-0.019167446 0.070148155 -0.022626268 -0.022316977 -0.042110026 -0.08490459 0.16734116 0.039372493
-0.046312388 -0.08383591 0.058422897 0.10720301 -0.018492728 -0.06425781 -0.06362276 0.030197369
-0.028375618 -0.05854254 0.09416863 0.14473566 0.029250428 0.10583088 -0.014419886 -0.01862606
0.0495283 0.05078645 0.028420871 0.11102473 0.0038602639 0.12449086 0.11920029 -0.03193444
-0.0190477 0.012822534 0.0023111226 -0.03602292 0.012476352 -0.016322741 -0.07469704 0.14767905
0.07658575 0.099100634 -0.026132861 0.12674128 0.07629587 0.047175825 0.05935085 -0.028799808
-0.027437255 -0.01574063 0.11674514 0.1341814 -0.08782969 -0.08645569 0.09167867 0.102862015
0.010178269 0.003958877 -0.060128234 -0.042690683 0.006428365 0.013145281 -0.07514267 0.1268572
-0.07752295 -0.083387524 0.08919902 -0.07142889 -0.081469975 -0.02773703 -0.077015296 -0.01777281
0.062004995 0.10784868 0.101549156 0.11578746 -0.0052686073 -0.052869104 -0.018399559 0.036778864
-0.049279958 -0.0031901083 -0.048650593 0.08446549 0.05821601 -0.07488877 0.102086775 0.09893656
0.002239886 0.13036734 -0.081523605 0.055500925 0.1048151 0.015641505 0.023603136 0.023395646
-0.06401008 -0.06497345 0.118601106 -0.0684302 -0.003218257 -0.013685196 -0.06040534 0.1679414
0.002752656 -0.06564669 0.014138384 -0.05263717 0.03719183 0.0797588 -0.090332076 -0.085212596

network.13.weight f4 [12, 128]
00000000: b28a 463d 1512 57bc 54e3 b83d cc9f 5bbd
00000010: 49cd 1c3d 1e19 ea3c 5385 7fbd e522 983d
00000020: f0b5 02bd edcb 8cbc b468 4a3b d5e7 d9bc
00000030: 4525 00bd 1ca4 283a adce 18bd fa62 ef3c
00000040: ac25 9dba f11c af3d 53d1 263d ed8b 1e3d
00000050: 0f5f 9dbd f80d 263a 6cff 75bc 6d36 a93d
00000060: 69c5 8b3b 7107 563d ed65 fa3c 8e1c 133d
00000070: eb1a fe3c f7b6 813c 35f6 b9bc 0b40 31bd
00000080: 34f0 433d 0827 5d3d c5be a03d 161e 77bd
00000090: 8e8d 3e3d 0746 0a3c c00d 30bd 3a6f cd3c
000000a0: 443b 393d a133 983d 13a3 723d 7dbd 293c
000000b0: a649 873c 0cf6 d73c 0c81 ba3c b3b4 00bd
000000c0: aee4 d83b 939c 23bd 03bf abbd 708c 773c
000000d0: 8563 ab3d ee38 473b f591 133d 1199 ba3d
000000e0: 90d8 9b3c e676 f8ba 16a9 963d d348 793d
000000f0: b5af 9dbc 589e bebd dbc7 c0bd f911 8b3d
00000100: 2713 093d ac1e adbc 0580 423d d59a 243c
00000110: b62b 7fbd c8bc 923d 0ed0 5ebc 09ee 1b3d
00000120: 58f1 ef3c 5f1b 0bbd 453d 18bc 3e92 343d
00000130: a2b7 2c3d 2aba 9d3d 7579 81bd 3472 a23d
00000140: 221b 183d b140 783c e7ce afbd 16dc 0a3d
00000150: 62e6 a1bd e03d e43c efe6 a8bd 3f59 a7bd
00000160: 6f0e a63b f54e b73c 3b9f a9bd d68a 73bd
00000170: 866d ddbc 6399 873d 6abf 1f3d dcf4 95bc
00000180: 47db a53b 3ba3 83bd caf0 0f3d 0342 8cbd
00000190: 0a36 0fbd 43fe b4bc 6bbf 61bb 612f da3c
000001a0: f755 87bc 16b1 20bd c542 323d 85d0 b23c
000001b0: 4a54 723c 3bc1 e5bc 2aa2 7b3c 0237 0bbc
000001c0: fce6 f63c a747 79bd dc02 cbbd ec74 bbbb
000001d0: 9292 973d fd18 8d3d 5886 9e3b a8e4 f5bc
000001e0: 664b 4a3c b6d3 113d 7208 80bb 7f66 1b3b
000001f0: 5b73 353c 64fc a3bd 5adf ac3d 6f79 343d
00000200: b53f b4bd 1835 89bc a6c6 343d 02c5 59bd
00000210: 3e48 d3bd cec1 ba3d f481 07bd 9711 b23c
00000220: d95c 2abd f9a4 4f3d 3964 cbbc 4327 b43d
00000230: 220b 953d 4378 ea3c 0c90 c13d e749 9c3d
00000240: 0704 86bd f4ce 96bc c128 aabd 00d1 993d
00000250: 963a 1e3c 6a4d ea3c 3c53 4e3c 8626 17bb
00000260: 1d30 ab3d cbaf 363d 3591 c93c 84d3 983d
00000270: 72c5 4a3b 016b 643d 3f73 b4bd 3080 263d
00000280: dca8 f63c 7a09 a0bc ca74 063b 9e33 c3bd
00000290: 23de 883d b9ce b1bd 8653 133c c97a 68bc
000002a0: 7ff6 6c3d af7b e737 3b73 433d 1bbb 3ebc
000002b0: dfcb 123d bde1 97bc 58ed d03d cef5 ba3d
000002c0: 8e9f 4b3d d6cd b4bc 82bf e2bb 4bc7 933d
000002d0: cec2 7cbd d790 9dbc 6a14 303d fb27 023e
000002e0: 745b d73c 1a31 c23c 7663 b73d b148 d43a
000002f0: becd 97bc ccfd b8bd aba3 c6bc 1209 6d3b
00000300: 67bc bbbd 8bd2 91bd e17c 64bd faec 74bd
00000310: 5054 94bd 4055 b83c 82ec 20bd 3c6c f8bc
00000320: ae0b bcbd 57f5 6f3d b7b1 18bd bcc0 8dbd
00000330: 4c2a 90bd fc81 89bc 3409 bc3d 2473 88bd
00000340: 8ba7 2abd 3975 d63c ffc4 87bd b4e9 6bbd
00000350: 8c26 8cbd 3a57 59bd 95b7 adbd dabe 9e3d
00000360: b304 60bd 5b20 ab3c 889e b1bd fea3 babd
00000370: 815e 8f3d 31d6 0b3d bfb7 2cbc a76c 89bd
00000380: 26c8 49bb 8c6a 593d 80fd 84bd 133d 5e3c
00000390: 779d 0abd 9f2a eabc 4ff9 413d d5a3 85bd
000003a0: 7d46 69bd 4560 6fbd ba30 f93c ec9f b63d
000003b0: c093 1bbd 438e 1d3d 5a1f 9a3c 7528 5e3d
000003c0: 920d 85bb 296d 96bc 5c3c 0abd 13db 8b3c
000003d0: 76f9 833d fd9f fa3c a949 68bb fef7 e3bd
000003e0: 2f0f 38bc 0fb3 4b3d 7faf 903d a08c 32bd
000003f0: 5acc 85bd a3c9 dbbd d0ac 84bd f697 5fbb
0.048472114 -0.01312687 0.090277344 -0.05361919 0.038281713 0.02857643 -0.062383007 0.074285306
-0.03191179 -0.017187083 0.0030885162 -0.026599804 -0.031285543 0.00064331456 -0.037306476 0.029222
-0.0011989377 0.08550442 0.04072697 0.038707662 -0.076841466 0.0006334479 -0.015014511 0.08262334
0.0042654765 0.05225319 0.03056618 0.035915904 0.031018695 0.015834315 -0.022700408 -0.043273967
0.047836497 0.0539923 0.078488864 -0.060331427 0.046521716 0.008439547 -0.042981863 0.025077451
0.045222536 0.074317224 0.05923755 0.010360119 0.01651461 0.026362441 0.022766612 -0.03142233
0.0066190576 -0.039944243 -0.08386042 0.0151091665 0.08368591 0.0030398923 0.036027867 0.09111226
0.019024163 -0.0018956333 0.07356469 0.060860466 -0.019248823 -0.093075454 -0.094131194 0.067905374
0.03346553 -0.02113279 0.04748537 0.01004668 -0.062297545 0.071649134 -0.013599409 0.038068805
0.029289886 -0.03396165 -0.009291952 0.04408478 0.042167313 0.077015236 -0.06321994 0.07931939
0.03713525 0.015152142 -0.08584385 0.033901297 -0.0790527 0.027861536 -0.08247172 -0.08171319
0.0050676386 0.022376517 -0.08282324 -0.059458576 -0.027029764 0.06621053 0.039000906 -0.018305235
0.0050615403 -0.06427618 0.035141744 -0.06848528 -0.034963645 -0.022093898 -0.003444637 0.02663392
-0.016520483 -0.039231382 0.043520708 0.021827945 0.014790604 -0.028046241 0.015358487 -0.008497002
0.030139439 -0.06085935 -0.09912655 -0.0057207253 0.07401003 0.06889532 0.0048377924 -0.030016258
0.012347078 0.035602294 -0.0039072568 0.0023712215 0.011074866 -0.08007124 0.084410384 0.04406112
-0.08801214 -0.01674895 0.04413476 -0.053166397 -0.103165135 0.091189966 -0.033082917 0.021736903
-0.041592453 0.05069444 -0.024828063 0.08796551 0.07277514 0.028621798 0.09451303 0.07631283
-0.06543737 -0.01840923 -0.083085544 0.07510567 0.009657523 0.028601367 0.012593087 -0.0023063733
0.08358786 0.044601243 0.024605373 0.074622184 0.003094044 0.05576611 -0.08811044 0.040649593
0.030109815 -0.019535769 0.002051639 -0.095313296 0.06682994 -0.08682007 0.0089920815 -0.0141894305
0.057852264 2.759494e-05 0.047717314 -0.011641289 0.035838958 -0.018540258 0.1020152 0.09128915
0.04971271 -0.022070806 -0.006919802 0.072157465 -0.061709218 -0.019234104 0.04298822 0.12710564
0.026288725 0.023705054 0.089545175 0.001619598 -0.018530723 -0.09032783 -0.024247965 0.0036168736
-0.09166794 -0.07120236 -0.055783156 -0.05979631 -0.07242644 0.022501588 -0.03928805 -0.030325048
-0.09181915 0.058583584 -0.037278857 -0.06921527 -0.070393175 -0.016785614 0.09181443 -0.06662586
-0.041663688 0.026178943 -0.06629371 -0.057595924 -0.0684329 -0.0530617 -0.08482281 0.07751246
-0.05469198 0.020889452 -0.086728156 -0.0911331 0.07000447 0.034139816 -0.010541855 -0.06710177
-0.0030789464 0.053080127 -0.06493664 0.013564366 -0.033841576 -0.028584776 0.0473569 -0.06525389
-0.05695199 -0.05844142 0.030418742 0.089172214 -0.037982702 0.03846575 0.018813778 0.0542378
-0.0040604556 -0.018362598 -0.03374897 0.017072236 0.06444065 0.030593866 -0.0035444295 -0.11131285
-0.011234089 0.04973131 0.07064723 -0.04359114 -0.065331176 -0.107318185 -0.06478274 -0.0034117675

network.13.bias f4 [12]
00000000: c2ac 9bbd 1a52 7bbe 8524 653e 808f cebd
00000010: ed46 3fbe b838 7ebe 431c f7bd e102 e53e
00000020: 7938 b63e 8b1e 39be 8ac3 ec3d ae8a 93bd
-0.0760131 -0.24543038 0.22377212 -0.10085964 -0.186794 -0.24826324 -0.12065937 0.4472876
0.3558996 -0.18078057 0.115607336 -0.072041854
